audiocnn/feedforwardnet1.pth (torch, 494683 bytes, 10 tensors)

conv1.0.weight f4 [16, 1, 3, 3]
0.27128324 -0.2910911 -0.29677856 0.004761909 -0.15467416 0.011288814 0.22222252 0.042575594
0.02150837 -0.07052514 0.15326847 0.11546768 0.028046386 -0.029225495 -0.0013234543 -0.05600868
-0.009851046 0.33124024 0.1713953 -0.19497842 0.044330325 -0.22125968 0.30763394 0.118838765
0.264649 0.25560495 -0.07123848 0.12929359 0.29277954 0.24006133 -0.29963365 0.20453812
0.28392836 0.035682607 0.10792844 -0.12598668 0.03982339 0.29132554 0.25038323 0.2175839
0.22809711 0.17795916 0.08597974 -0.18444392 -0.13096794 0.22154179 -0.078181654 0.26253104
-0.09277339 0.2339371 -0.22222196 -0.010589947 -0.040330093 0.05357793 0.06779707 0.14307919
0.01924532 0.27461055 0.014708176 0.21771242 -0.20107605 -0.07871239 0.33097968 0.05743641
-0.28700912 -0.14786062 0.15040012 0.120951585 0.2727521 -0.18990164 0.26131666 0.31303594
0.12363693 -0.11461624 0.17147039 0.20783274 -0.23512089 0.12500215 -0.02920624 0.097665556
0.22611928 -0.06649752 -0.086144894 -0.30503446 0.15955566 0.1020714 -0.14165665 -0.31353813
-0.21247473 -0.20088743 0.16127798 0.067735896 -0.24518628 -0.04421546 -0.29894277 -0.18451187
-0.060389593 -0.08899444 0.2644394 0.28732154 0.108616844 -0.17922026 0.29027116 -0.2664167
0.06992921 0.16057967 0.21614832 -0.24503472 0.08623092 0.14732207 -0.04772461 -0.0885131
-0.14777654 -0.3243612 -0.2486745 0.19563246 -0.23192993 0.0059365174 0.31263778 0.13458274
-0.20453677 0.2892349 -0.08085532 -0.22831818 -0.20147777 -0.34022853 -0.31990498 -0.1822774
0.22632849 -0.16910668 0.12933221 0.25561854 -0.06541159 -0.1639297 0.29538766 -0.0012906255
-0.24592063 -0.04356098 0.1517533 -0.17364557 -0.007908816 0.28358755 -0.038189076 0.2880644
00000000: a3e5 8a3e e509 95be 5cf3 97be ca09 9c3b
00000010: e762 1ebe b8f4 383c 4d8e 633e bf63 2e3d
00000020: 5232 b03c 7c6f 90bd 69f2 1c3e 527a ec3d
00000030: 89c1 e53c 4e6a efbc c277 adba 5c69 65bd
00000040: 4866 21bc 5298 a93e 4082 2f3e 6ca8 47be
00000050: b793 353d e691 62be 3282 9d3e bd61 f33d
00000060: 1380 873e a7de 823e 7be5 91bd 8a65 043e
00000070: 33e7 953e a3d2 753e 9569 99be 7172 513e
00000080: 0f5f 913e ed27 123d 9609 dd3d a702 01be
00000090: da1d 233d 9f28 953e 3b32 803e 50ce 5e3e
000000a0: 4a92 693e ed3a 363e 2516 b03d dede 3cbe
000000b0: 761c 06be dadb 623e b41d a0bd 786a 863e
000000c0: faff bdbd 358d 6f3e 278e 63be 7581 2dbc
000000d0: 2b31 25bd 8874 5b3d 31d9 8a3d 5a83 123e
000000e0: 5da8 9d3c c199 8c3e 90fa 703c 01f0 5e3e
000000f0: e1e6 4dbe f633 a1bd 2b76 a93e 7142 6b3d
00000100: dcf2 92be c668 17be 7d02 1a3e 77b5 f73d
00000110: 2aa6 8b3e 9375 42be 4ccb 853e 3f46 a03e
00000120: 5c35 fd3d ebbb eabd ef95 2f3e 1bd2 543e
00000130: 88c3 70be 9000 003e ed41 efbc e104 c83d
00000140: d08b 673e da2f 88bd bc6c b0bd 7a2d 9cbe
00000150: 8f62 233e cf0a d13d 710e 11be 1288 a0be
00000160: fa92 59be 6fb5 4dbe 0e26 253e 1eb9 8a3d
00000170: 1d12 7bbe 451b 35bd 070f 99be aef0 3cbe
00000180: 145b 77bd b842 b6bd 9a64 873e cf1b 933e
00000190: 8272 de3d 8485 37be 6c9e 943e c567 88be
000001a0: 0c37 8f3d ff6e 243e fc55 5d3e 62ea 7abe
000001b0: d699 b03d 99db 163e e17a 43bd 5b46 b5bd
000001c0: bc52 17be ac12 a6be 87a4 7ebe e053 483e
000001d0: 0a7f 6dbe 1e87 c23b 0f12 a03e 0fd0 093e
000001e0: 1672 51be 9916 943e 7997 a5bd 3ecc 69be
000001f0: 3050 4ebe 6f32 aebe 96ca a3be eda6 3abe
00000200: a8c2 673e 4d2a 2dbe aa6f 043e 6fe0 823e
00000210: 83f6 85bd 30dd 27be 0d3d 973e 352a a9ba
00000220: 9ed2 7bbe 006d 32bd 3865 1b3e 25d0 31be
00000230: fb93 01bc 6332 913e 266c 1cbd 2d7d 933e

conv1.0.bias f4 [16]
-0.33064604 -0.06671354 0.21024314 -0.19485132 -0.16262913 0.07814745 0.00040233508 0.1340385
0.193889 -0.04616365 0.009523537 -0.052260187 0.057301182 0.16840684 -0.3219941 0.3041346
00000000: 704a a9be 1ca1 88bd fa49 573e 1b87 47be
00000010: 4088 26be c50b a03d 80f0 d239 6341 093e
00000020: d78a 463e 1816 3dbd 9c08 1c3c c70e 56bd
00000030: a5b4 6a3d d872 2c3e 69dc a4be 88b7 9b3e

conv2.0.weight f4 [32, 16, 3, 3]
-0.067732744 0.06903718 -0.014964878 -0.086633906 0.0350958 0.05179832 0.037034165 -0.039907377
0.038371176 0.06381307 -0.029362144 0.0466657 -0.05640736 -0.041407265 0.07271441 5.2572588e-05
-0.06966687 0.06873331 0.03914335 0.020771649 -0.05384494 -0.023676792 -0.01965972 -0.038884178
-0.036103513 -0.09260967 0.047621697 0.07287456 -0.012437309 -0.03488879 0.0066817747 -0.06741167
-0.09247956 0.035519082 0.01657764 -0.081060335 -0.006487096 0.020976825 0.054051623 -0.012331533
-0.039898373 0.047241893 0.06335338 -0.08047919 -0.062461834 0.03879944 0.005060308 -0.069615215
-0.068543695 0.018204324 -0.04740133 -0.07799574 0.014992614 -0.011737014 -0.032985985 -0.0232338
-0.076149605 -0.06090538 0.067151055 0.07364272 -0.031195091 0.022687891 0.008071644 0.042042423
-0.040427893 0.047992874 -0.07936332 -0.015151423 0.03162206 -0.042207867 -0.045972276 0.040822145
0.021314204 0.024345312 0.014778162 -0.06763582 0.025200028 -0.045476597 -0.06924473 -0.004142973
-0.007946757 -0.022693384 0.035737645 0.069566 -0.054651268 -0.052974664 0.03963151 0.06418268
0.060883075 0.080716126 -0.09352361 -0.057869866 0.026336722 -0.009564354 -0.014697208 -0.039917115
-0.015075913 0.03231384 0.03832368 -0.06385177 -0.0398015 -0.088969186 -0.04575864 0.033102226
-0.055245023 -0.045255907 0.05394554 -0.0030455673 -0.030353488 -0.034641992 0.011254695 0.054313213
-0.028637871 0.038716983 -0.019546878 -0.0747015 -0.052183267 -0.03768141 -0.07468945 0.018105702
-0.078210436 0.042345293 0.006263619 0.06818746 -0.04620041 -0.07466383 -0.038825992 0.033298634
0.008349908 -0.022085875 0.00931625 -0.033760212 0.011309841 0.03588692 0.07557779 -0.024609199
-0.06559987 -0.09807484 -0.092989475 0.029150808 0.06284593 0.009160749 -0.081327915 -0.0681044
0.043014456 0.004602486 0.064512655 -0.026918463 -0.022753168 0.0037646755 0.073508345 -0.057571054
0.03552189 0.06248015 0.09235005 0.04201708 0.023178158 -0.011950638 0.10279401 0.017469293
0.056052193 0.063103296 0.042386428 0.08810714 0.015000827 -0.056097645 0.063320965 0.101291716
0.068296365 -0.05056632 0.028313264 0.0766343 0.09856154 0.10359996 -0.010039568 0.06121751
0.0045169774 0.086021125 -0.05301072 0.0024210876 -0.009318539 0.06697651 -0.020559238 0.04853154
0.08543871 -0.026923742 0.02339891 -0.0073608104 0.029093174 -0.03525679 0.054935236 0.11133588
-0.022161111 0.08465875 0.037384532 -0.0655165 -0.06295816 0.088934325 0.04527095 0.0048619853
0.019020349 0.047593325 0.03380886 0.020810213 0.0039242757 0.03232818 -0.0342577 -0.062488306
0.09222583 0.10282304 0.05702784 0.02887628 -0.023777744 -0.037314165 -0.028139409 0.036748208
0.023525016 0.076026425 0.04265502 -0.035122644 -0.05834042 0.09166119 -0.058498103 -0.04977515
0.0066993563 0.07751514 -0.045095086 -0.0032002435 -0.022660108 0.088900745 0.04698241 -0.0386972
0.044868264 -0.06753226 0.0846904 -0.029444497 -0.07093792 0.005704009 0.019659465 0.016296012
0.08085548 -0.003715987 -0.028513473 -0.029496951 0.007414015 -0.04782761 -0.010700015 0.076932706
0.090498246 -0.024744343 0.05986818 0.019944554 0.012745431 -0.013845589 -0.048358165 0.07388455
00000000: 77b7 8abd 5d63 8d3d 3f2f 75bc 1e6d b1bd
00000010: 9dc0 0f3d 7a2a 543d 23b1 173d eb75 23bd
00000020: 182b 1d3d 6db0 823d e188 f0bc 8824 3f3d
00000030: 670b 67bd aa9a 29bd 4beb 943d 6381 5c38
00000040: 81ad 8ebd 0dc4 8c3d c754 203d 4e29 aa3c
00000050: 838c 5cbd d5f5 c1bc 6c0d a1bc 0445 1fbd
00000060: 47e1 13bd 23aa bdbd f80e 433d 423f 953d
00000070: dbc5 4bbc 8ce7 0ebd caf2 da3b 210f 8abd
00000080: ec65 bdbd 757c 113d d5cd 873c f602 a6bd
00000090: b591 d4bb 97d7 ab3c 3c65 5d3d 330a 4abc
000000a0: 7a6c 23bd b780 413d 6bbf 813d 46d2 a4bd
000000b0: fbd7 7fbd 29ec 1e3d f1d0 a53b 6c92 8ebd
000000c0: a360 8cbd 3c21 953c e627 42bd 3bbc 9fbd
000000d0: 95a3 753c 9b4c 40bc 501c 07bd cf54 bebc
000000e0: 53f4 9bbd eb77 79bd 7e86 893d ffd1 963d
000000f0: d98c ffbc f5db b93c ee3e 043c ad34 2c3d
00000100: b897 25bd 2d94 443d 3c89 a2bd ad3d 78bc
00000110: 2286 013d 28e2 2cbd 6d4d 3cbd 1f35 273d
00000120: 209b ae3c d26f c73c 1b20 723c a684 8abd
00000130: 4a70 ce3c ab45 3abd 2ed0 8dbd c7c1 87bb
00000140: 1d33 02bc 7ae7 b9bc a361 123d 9e78 8e3d
00000150: 02da 5fbd f6fb 58bd a654 223d 3572 833d
00000160: 8860 793d 7f4e a53d 4e89 bfbd f408 6dbd
00000170: 1cc0 d73c cfb3 1cbc 8fcc 70bc 2180 23bd
00000180: f600 77bc 845b 043d 4bf9 1c3d b7c4 82bd
00000190: e606 23bd 7a35 b6bd 696d 3bbd 3396 073d
000001a0: 9b48 62bd 425e 39bd 00f6 5c3d 2498 47bb
000001b0: e1a7 f8bc c3e4 0dbd 9d65 383c 8877 5e3d
000001c0: f899 eabc b395 1e3d c620 a0bc 1afd 98bd
000001d0: 1fbe 55bd d257 1abd c8f6 98bd 6952 943c
000001e0: cb2c a0bd 4272 2d3d 0b3f cd3b dea5 8b3d
000001f0: a43c 3dbd 5ae9 98bd 0108 1fbd 2664 083d
00000200: 0dce 083c 70ed b4bc 2fa3 183c 2648 0abd
00000210: e94c 393c 2afe 123d 87c8 9a3d 3b99 c9bc
00000220: 3a59 86bd 76db c8bd 4471 bebd adcd ee3c
00000230: 5eb5 803d f716 163c 408f a6bd 527a 8bbd
00000240: ed2f 303d 73d0 963b 361f 843d 1c84 dcbc
00000250: da64 babc c6b8 763b 8b8b 963d a0cf 6bbd
00000260: 677f 113d 30eb 7f3d 0622 bd3d 1a1a 2c3d
00000270: 1fe0 bd3c 9ccc 43bc aa85 d23d c31b 8f3c
00000280: fc96 653d 4d3c 813d 649d 2d3d 8471 b43d
00000290: 07c6 753c a5c6 65bd 6cae 813d 0872 cf3d
000002a0: f7de 8b3d a11e 4fbd 38f1 e73c 72f2 9c3d
000002b0: a2da c93d 372c d43d 007d 24bc 36bf 7a3d
000002c0: 2703 943b d82b b03d c521 59bd 1cab 1e3b
000002d0: c9ac 18bc fb2a 893d d96b a8bc 02c9 463d
000002e0: 7efa ae3d 2e8f dcbc 12af bf3c f432 f1bb
000002f0: cf54 ee3c 6d69 10bd c503 613d 1104 e43d
00000300: 388b b5bc 9161 ad3d 8620 193d 842d 86bd
00000310: 35f0 80bd 3323 b63d 086e 393d 4a51 9f3b
00000320: 90d0 9b3c 38f1 423d 297b 0a3d 2e7a aa3c
00000330: 3697 803b 8e6a 043d cd51 0cbd bdf3 7fbd
00000340: e5e0 bc3d e394 d23d 0696 693d f38d ec3c
00000350: 8bc9 c2bc bdd6 18bd 9e84 e6bc 4a85 163d
00000360: 89b7 c03c beb3 9b3d 08b7 2e3d c3dc 0fbd
00000370: 5df6 6ebd ddb8 bb3d b59b 6fbd 07e1 4bbd
00000380: 4686 db3b 42c0 9e3d a0b5 38bd 2dbb 51bb
00000390: b1a1 b9bc 9811 b63d a170 403d f580 1ebd
000003a0: c9c7 373d 5b4e 8abd 2972 ad3d 9635 f1bc
000003b0: e647 91bd b2e8 ba3b e30c a13c 377f 853c
000003c0: 8f97 a53d eb87 73bb 1695 e9bc 97a3 f1bc
000003d0: 44f1 f23b e2e6 43bd 1e4f 2fbc e58e 9d3d
000003e0: 2557 b93d a6b4 cabc 5638 753d c362 a33c
000003f0: 36d2 503c 9cd8 62bc 3613 46bd c850 973d

conv2.0.bias f4 [32]
0.019015659 -0.06467555 0.0077584726 -0.08036278 0.020424932 0.042567853 -0.038623296 0.013664176
-0.04366057 -0.01857368 -0.024734924 -0.06634887 0.05478197 0.051750984 0.0055284314 -0.101948045
0.01005779 -0.069211125 -0.04886466 -0.05764448 -0.091775075 -0.10218908 0.026463052 0.007931004
0.004120748 0.0039442056 -0.038759224 -0.13398357 -0.024909852 -0.0728184 0.009422208 0.0668878
00000000: bac6 9b3c 9d74 84bd c93a fe3b 3e95 a4bd
00000010: 3052 a73c a15b 2e3d 7633 1ebd b5df 5f3c
00000020: 6dd5 32bd d527 98bc e5a0 cabc ebe1 87bd
00000030: 0f63 603d d7f8 533d d827 b53b 23ca d0bd
00000040: 6ec9 243c 90be 8dbd 4f26 48bd 9e1c 6cbd
00000050: 92f4 bbbd 8248 d1bd 0bc9 d83c 0bf1 013c
00000060: 5707 873b 653e 813b fec1 1ebd fd32 09be
00000070: bf0f ccbc d021 95bd 9b5f 1a3c 79fc 883d

conv3.0.weight f4 [64, 32, 3, 3]
0.019418415 -0.013877096 0.045759752 -0.0054637045 0.056035444 0.059747636 -0.048373796 -0.0022355833
0.033638477 -0.015140384 -0.01867888 -0.027101792 0.014061332 0.00927208 0.01258073 0.0042267963
0.073731765 0.06079854 -0.041399553 -0.056091856 0.031001836 -0.04219195 0.055983204 -0.012340655
0.033345323 -0.0053402847 0.027984375 0.015360541 -0.019110544 0.016109945 0.046608586 -0.06434826
-0.05277789 0.031708736 0.0060232654 0.048536096 0.044449694 -0.062845506 0.0035357468 0.058550015
-0.019814415 0.031491723 0.051533334 -0.013303787 -0.05033913 0.03716005 0.007774181 0.037029166
-0.049095046 0.04343466 -0.0055913734 0.029261464 -0.043772213 -0.038293123 0.05989409 0.055487636
-0.0073359194 0.012557391 0.0812817 0.012676138 -0.00059202814 -0.017535767 -0.024756512 -0.048503798
0.0042907926 -0.006862011 -0.019399708 -0.02476566 -0.011896609 0.019279664 0.04012603 -0.03107199
-0.013039099 0.03464875 -0.03430192 -0.013281821 0.037417524 0.042476267 0.033124685 0.030558003
-0.030009968 0.011273717 -0.065902114 0.029156517 0.044591915 -0.031114517 -0.038041655 0.036620777
-0.019869538 0.02427086 0.056794874 -0.02064199 0.04618284 0.06181356 0.011349314 -0.062069748
-0.0041735866 0.04666351 -0.018757835 -0.015154919 0.037928566 -0.06541122 0.047813382 0.06409489
0.011503865 0.03804949 0.046654157 -0.009214331 -0.020592988 -0.040292747 -0.02346229 -0.02959257
-0.048215337 -0.061597608 -0.02995874 0.019164031 0.008351164 0.0028782182 -0.0382888 0.012176374
0.07062279 -0.030855801 0.059164256 -0.009317058 0.072746634 -0.056924485 -0.025638532 -0.014481241
-0.033696722 -0.045395497 0.008829392 0.025689878 -0.052255273 -0.009977969 -0.042611133 0.031700406
0.064206235 0.042104654 0.01987053 -0.016524203 -0.045907233 0.024170028 -0.04122179 0.02299042
-0.0071639093 -0.053200517 0.046790875 -0.047971584 0.01572669 -0.04365043 0.01533424 0.06660117
-0.02929443 -0.030158143 -0.05103431 -0.030724363 0.042950947 0.054661434 0.012397106 0.019692248
-0.052328248 -0.05882744 -0.03519926 -0.0074358783 -0.0021591503 -0.010551862 -0.030449478 0.019193955
-0.010029692 0.021406507 -0.003718465 0.053454503 -0.038608603 -0.0014278222 -0.037771568 0.027367221
-0.040776554 -0.02825159 -0.020235399 0.04325942 0.03689595 0.046820093 0.0017725582 0.059907105
0.018671235 0.027313272 -0.040858082 -0.04171688 -0.0014092936 0.015050567 -0.07042271 -0.0599461
0.029408375 0.027481586 0.062403075 0.029542986 0.004222562 0.05741803 0.040251277 -0.012529318
0.021389423 0.038172234 -0.0009133728 0.04938349 -0.025070993 0.004836078 -0.012507028 0.055851728
-0.03538578 0.046636492 -0.0177044 0.014453919 -0.03123519 -0.0188525 -0.034777116 0.058044214
-0.050492015 -0.04146825 -0.035865366 0.001243902 -0.012669179 0.019772336 0.015642362 0.06269603
-0.004083921 -0.061465576 0.018690389 -0.03791651 -0.03652646 0.038165774 -0.0175021 0.0012125567
-0.011910483 -0.03731966 -0.05283962 0.03056961 0.026417192 -0.004335632 -0.03631093 0.027768029
-0.01544874 0.0010699247 -0.06278346 -0.007934357 -0.05937198 0.012011342 0.03550763 0.011098861
0.032458305 0.044583023 0.026259491 0.007940833 0.06518547 0.049305044 -0.029085532 -0.03260014
00000000: 5e13 9f3c c25c 63bc 946e 3b3d e008 b3bb
00000010: 6c85 653d f0b9 743d 9a23 46bd dd82 12bb
00000020: 80c8 093d 600f 78bc 7304 99bc 9404 debc
00000030: 8061 663c ece9 173c 681f 4e3c f080 8a3b
00000040: ae00 973d e407 793d 9492 29bd 93c0 65bd
00000050: 90f7 fd3c 77d1 2cbd a54e 653d 7530 4abc
00000060: 1b95 083d 8efd aebb 7d3f e53c c7aa 7b3c
00000070: b78d 9cbc 01f9 833c a5e8 3e3d 05c9 83bd
00000080: a12d 58bd 05e1 013d d05e c53b c9cd 463d
00000090: e210 363d 25b5 80bd fdb7 673b 24d2 6f3d
000000a0: d751 a2bc 77fd 003d 9e14 533d 21f8 59bc
000000b0: 6730 4ebd 2335 183d 8fbe fe3b e5ab 173d
000000c0: e317 49bd 8be8 313d d737 b7bb bdb5 ef3c
000000d0: 7e4a 33bd 40d9 1cbd 8153 753d 0147 633d
000000e0: 2762 f0bb 84bd 4d3c 0577 a63d 94af 4f3c
000000f0: 5632 1bba 2ba7 8fbc 2bce cabc ebab 46bd
00000100: c799 8c3b b8da e0bb 23ec 9ebc 5ae1 cabc
00000110: ffe9 42bc 63f0 9d3c 315b 243d b08a febc
00000120: f2a1 55bc d9eb 0d3d 2c80 0cbd ff9b 59bc
00000130: 1e43 193d 98fb 2d3d c0ad 073d c754 fa3c
00000140: 77d7 f5bc 65b5 383c b0f7 86bd a6d9 ee3c
00000150: 03a6 363d dfe3 febc 91d1 1bbd abff 153d
00000160: 71c5 a2bc afd3 c63c bea1 683d 6419 a9bc
00000170: 382a 3d3d 3730 7d3d 79f2 393c d93c 7ebd
00000180: 95c2 88bb 3d22 3f3d 08aa 99bc 564c 78bc
00000190: fc5a 1b3d 51f6 85bd f7d7 433d 2f44 833d
000001a0: b57a 3c3c c8d9 1b3d 6e18 3f3d b5f7 16bc
000001b0: a0b2 a8bc 020a 25bd fd33 c0bc 1e6c f2bc
000001c0: 727d 45bd c64d 7cbd 086c f5bc e3fd 9c3c
000001d0: 52d3 083c 7da0 3c3b b7d4 1cbd 6a7f 473c
000001e0: aea2 903d 4ec5 fcbc 3856 723d 93a6 18bc
000001f0: 30fc 943d a629 69bd e607 d2bc ba42 6dbc
00000200: 9305 0abd a1f0 39bd 27a9 103c 9473 d23c
00000210: a009 56bd a37a 23bc 0389 2ebd 49d8 013d
00000220: 8f7e 833d ee75 2c3d 86c7 a23c c45d 87bc
00000230: 3909 3cbd 3900 c63c 2ed8 28bd 6856 bc3c
00000240: 3abf eabb c9e8 59bd caa7 3f3d da7d 44bd
00000250: 42d5 803c cbca 32bd 773c 7b3c 3266 883d
00000260: dffa efbc 360e f7bc 5a09 51bd a9b1 fbbc
00000270: 55ed 2f3d abe4 5f3d 3b1d 4b3c a351 a13c
00000280: 2556 56bd 0bf5 70bd 192d 10bd aba8 f3bb
00000290: 8880 0dbb b8e1 2cbc 2f71 f9bc a43c 9d3c
000002a0: 9453 24bc b35c af3c 7eb1 73bb 1cf3 5a3d
000002b0: 0e24 1ebd c325 bbba 5cb6 1abd 3931 e03c
000002c0: 5105 27bd e16f e7bc b5c4 a5bc ca30 313d
000002d0: 3520 173d 6dc6 3f3d 2f55 e83a 2761 753d
000002e0: 6bf4 983c 15c0 df3c ce5a 27bd 52df 2abd
000002f0: 0cb8 b8ba a796 763c c839 90bd 0b8a 75bd
00000300: d5e9 f03c 1021 e13c 5e9a 7f3d 2204 f23c
00000310: 6b5d 8a3b 2b2f 6b3d 86de 243d c547 4dbc
00000320: df38 af3c 7d5a 1c3d 696f 6fba 5846 4a3d
00000330: af61 cdbc f677 9e3b 47ea 4cbc c8c4 643d
00000340: aef0 10bd e805 3f3d d108 91bc 21d0 6c3c
00000350: f1e0 ffbc 8f70 9abc 7372 0ebd c5bf 6d3d
00000360: b7d0 4ebd 9dda 29bd 90e7 12bd 6d0a a33a
00000370: 6392 4fbc 98f9 a13c 6924 803c c766 803d
00000380: 6ad2 85bb 54c3 7bbd 961c 993c 584e 1bbd
00000390: c59c 15bd b753 1c3d 9060 8fbc a7ee 9e3a
000003a0: 3024 43bc 80dc 18bd 5b6e 58bd 1e6d fa3c
000003b0: de68 d83c eb11 8ebb c5ba 14bd c779 e33c
000003c0: b61c 7dbc b73c 8c3a 9d94 80bd 1bff 01bc
000003d0: 0930 73bd 38cb 443c 7370 113d ffd7 353c
000003e0: 00f3 043d b09c 363d 251e d73c 451a 023c
000003f0: f67f 853d 16f4 493d c844 eebc b987 05bd

conv3.0.bias f4 [64]
-0.045739453 0.0055824155 0.11177121 -0.062060323 -0.049139373 -0.015791394 0.12994987 0.0027113154
-0.056264956 0.06408912 -0.036750965 -0.025141157 0.045188367 -0.035444766 -0.080444545 -0.04596026
-0.027918277 0.07836262 -0.079318695 -0.040411297 -0.04451298 -0.0010961473 0.06475245 -0.009187555
0.021367606 -0.0025994529 -0.06854447 -0.067077234 0.012632006 -0.017876407 -0.005975494 0.041626904
-0.018890426 -0.059940506 0.02920682 0.050101433 0.025025517 -0.008086597 0.0381914 0.064088434
0.0771056 -0.02629941 -0.022239342 -0.011335042 0.12114645 0.116560966 -0.0604314 -0.012948361
0.03230009 0.06792925 -0.018009914 -0.013893324 -0.06154371 -0.021715423 0.048882287 -0.020247879
0.004111762 0.07769285 0.089118734 0.03450939 -0.039121933 -0.033467755 0.0067908885 0.028748067
00000000: 4b59 3bbd b2ec b63b 4ee8 e43d f732 7ebd
00000010: 5e46 49bd f45c 81bc 9411 053e 53b0 313b
00000020: 1576 66bd 2841 833d 2e88 16bd d4f4 cdbc
00000030: 7017 393d 882e 11bd 1cc0 a4bd d340 3cbd
00000040: dfb4 e4bc 957c a03d d771 a2bd 5186 25bd
00000050: 3e53 36bd 9aac 8fba ef9c 843d 6687 16bc
00000060: 1e0b af3c 955b 2abb 0b61 8cbd ca5f 89bd
00000070: 79f6 4e3c 8b71 92bc 14ce c3bb f980 2a3d
00000080: 18c0 9abc 2d84 75bd 2443 ef3c 2937 4d3d
00000090: 5002 cd3c a57d 04bc 966e 1c3d cc40 833d
000000a0: 8ae9 9d3d dc71 d7bc 482f b6bc 9db6 39bc
000000b0: a11b f83d 84b7 ee3d ea86 77bd 5d25 54bc
000000c0: 194d 043d 7e1e 8b3d 8789 93bc d3a0 63bc
000000d0: 4215 7cbd 8be4 b1bc cb38 483d e1de a5bc
000000e0: f6bb 863b 6e1d 9f3d e283 b63d b859 0d3d
000000f0: 523e 20bd 7c15 09bd 1a86 de3b 1181 eb3c

conv4.0.weight f4 [128, 64, 3, 3]
-0.0040226765 -0.054534033 -0.030505968 -0.04057723 0.0032352142 -0.024796508 -0.03316152 -0.025032857
0.026766963 -0.014182091 0.032813605 -0.027525447 0.010107486 0.021228049 0.027026333 0.00507487
0.005218915 -0.015144014 0.003949825 0.040024694 -0.004805017 0.008149086 0.025450222 -9.514526e-05
-0.0067498987 -0.0018332124 0.010602223 -0.04393662 0.008071087 -0.0107247885 0.020269515 0.010581973
-0.006015033 0.013058919 -0.00053236797 0.0053671226 -0.009828739 -0.01351017 -0.014223548 0.03394447
0.009557193 -0.022015322 0.0022507892 0.051727843 0.0032477533 0.0026653858 -0.04450691 -0.0089127775
-0.0365065 0.035236992 0.0037816602 0.023702798 0.045759704 -0.049298625 0.0024092684 -0.038099833
0.019435117 -0.027029304 0.01714175 0.013642081 0.0006776128 0.020827338 0.08438192 -0.00928488
-0.045215745 -0.009495611 -0.0056746523 0.031901523 -0.03860389 -0.016407054 0.018215427 -0.034480974
0.018577848 -0.011564224 -0.0074427687 0.02853625 -0.016235486 -0.059393246 0.038034163 -0.022938557
-0.055534255 -0.055013146 0.001906341 -0.008707276 -0.035437483 -0.04414249 -0.021424253 -0.003922233
0.02808973 -0.046348732 -0.03950275 0.022149714 -0.02401804 0.023573615 0.013722857 -0.05599426
-0.008290911 0.02500204 -0.038525797 -0.038088057 0.005066219 -0.033841237 -0.012734518 -0.006306188
-0.0005413725 -0.025545951 -0.0006560422 0.0027827993 0.0030947356 -0.0011078789 -0.00053015933 0.017788827
0.017781805 0.012433814 -0.019933484 0.001954613 -0.008785031 -0.0051484774 0.022563439 -0.01879222
0.04146897 -0.022917097 0.03625796 0.005218816 0.024655664 -0.007896982 -0.041485194 0.042384733
-0.025799226 0.0019740725 0.028310074 -0.02514765 -0.027711164 0.04403633 -0.0299226 -0.052379064
-0.014243065 -0.054835994 -0.0031835188 -0.03577544 -0.016031928 0.023669194 0.024839044 -0.038802706
-0.010858771 -0.018219031 -0.004240963 0.0027210545 -0.012053942 0.0372544 0.049567293 -0.022172373
0.00813591 0.0014608377 -0.008259581 -0.025479354 -0.04034017 0.011412708 0.0117053045 0.015193719
-0.020503243 -0.022137351 -0.00966808 0.020689584 -0.048042037 0.037162796 0.039094727 0.025583092
-0.042975254 -0.008494971 -0.0228713 0.020833654 0.013388493 -0.057172734 -0.013464686 -0.031472713
-0.02300767 -0.019120583 -0.009330307 -0.030366207 -0.025661213 0.039623495 -0.03850114 0.02510544
-0.014199449 -0.034419414 0.010073616 0.0047611366 0.004508824 -0.0018636265 0.0459007 -0.022076689
0.0014662695 -0.026427116 -0.04429611 -0.009288589 -0.014808672 -0.044627313 -0.023604138 -0.032748636
-0.027751587 -0.009415261 0.017035492 0.011479119 0.038796958 0.045184426 0.0064984397 0.029073428
-0.030069437 0.0127083445 -0.004379983 -0.053092062 0.030767603 0.020060563 -0.041531056 -0.0015794033
0.009008914 -0.031041019 -0.028709106 0.03729693 -0.011814512 0.0007707056 -0.004101625 -0.035046924
0.0022680196 0.021047298 -0.0027601887 0.010205229 -0.038067363 0.017327398 -0.006726503 0.0057888646
-0.0018869553 -0.014052638 -0.022712724 0.014875177 -0.053285107 0.0064982423 -0.037513692 -0.014745631
0.024641298 0.013018252 0.021650203 0.021288326 -0.0090395035 0.0006723343 -0.02627879 0.03583115
-0.026267456 -0.039455302 0.040401384 0.009874873 0.006242707 -0.005259195 -0.017503764 -0.037729878
00000000: a8d0 83bb 145f 5fbd a7e7 f9bc 4f34 26bd
00000010: e305 543b 0c22 cbbc 60d4 07bd b511 cdbc
00000020: 6446 db3c 005c 68bc 8f67 063d 0c7d e1bc
00000030: de99 253c 72e6 ad3c 5466 dd3c 184b a63b
00000040: 6f03 ab3b 991e 78bc 896d 813b eff0 233d
00000050: 6773 9dbb be83 053c fc7c d03c b988 c7b8
00000060: 412e ddbb 6748 f0ba f2b4 2d3c e3f6 33bd
00000070: 983c 043c 06b7 2fbc 410c a63c 0360 2d3c
00000080: c119 c5bb 14f5 553c 9c8e 0bba b0de af3b
00000090: b808 21bc c359 5dbc e209 69bc 5b09 0b3d
000000a0: c695 1c3c 7a59 b4bc fa81 133b 93e0 533d
000000b0: 42d8 543b c1ad 2e3b e14c 36bd e606 12bc
000000c0: d787 15bd aa54 103d bbd5 773b 5f2c c23c
000000d0: 876e 3b3d 5bed 49bd d1e4 1d3b 920e 1cbd
000000e0: 6536 9f3c 8f6c ddbc db6c 8c3c 0983 5f3c
000000f0: d3a1 313a 189e aa3c 6ed0 ac3d 9c1f 18bc
00000100: 2534 39bd 7b93 1bbc 6ff2 b9bb 2cab 023d
00000110: 1d1f 1ebd 1668 86bc 8538 953c ec3b 0dbd
00000120: 9230 983c df77 3dbc 78e2 f3bb dbc4 e93c
00000130: 4800 85bc 5546 73bd b6c9 1b3d a4e9 bbbc
00000140: e377 63bd 7755 61bd 31de f93a f6a8 0ebc
00000150: e526 11bd c1ce 34bd ea81 afbc 1386 80bb
00000160: 6f1c e63c 2bd8 3dbd a3cd 21bd 5173 b53c
00000170: 7bc1 c4bc 741d c13c d6d5 603c 3d5a 65bd
00000180: 9ad6 07bc 14d1 cc3c 3acd 1dbd 3902 1cbd
00000190: 8602 a63b 1c9d 0abd 71a4 50bc 24a4 cebb
000001a0: e5ea 0dba be45 d1bc 3ffa 2bba a05f 363b
000001b0: 0cd1 4a3b 3f36 91ba 64fa 0aba e0b9 913c
000001c0: 26ab 913c 32b7 4b3c 8c4b a3bc f718 003b
000001d0: 17ef 0fbc 8fb4 a8bb f6d6 b83c 24f2 99bc
000001e0: 5edb 293d a3bc bbbc 3a83 143d 9a02 ab3b
000001f0: adfa c93c 5862 01bc 61ec 29bd 9d9b 2d3d
00000200: e658 d3bc 715f 013b 87ea e73c 7202 cebc
00000210: 8602 e3bc 705f 343d 3e20 f5bc 6e8b 56bd
00000220: bf5b 69bc b59b 60bd 95a2 50bb 4589 12bd
00000230: 6455 83bc e6e5 c13c 407b cb3c 96ef 1ebd
00000240: fde8 31bc 1440 95bc c7f7 8abb b853 323b
00000250: e67d 45bc 1298 183d 1307 4b3d d6a2 b5bc
00000260: 7b4c 053c 9479 bf3a 3253 07bc 14ba d0bc
00000270: bc3b 25bd 5efc 3a3c 9bc7 3f3c 14ef 783c
00000280: 6bf6 a7bc 6459 b5bc de66 1ebc 347d a93c
00000290: bac7 44bd 0438 183d cb21 203d a293 d13c
000002a0: d206 30bd 7e2e 0bbc 985c bbbc 57ab aa3c
000002b0: 695b 5b3c f52d 6abd fd9a 5cbc 88e9 00bd
000002c0: 957a bcbc c5a2 9cbc 25de 18bc 8dc2 f8bc
000002d0: 7737 d2bc 3f4c 223d 5fb3 1dbd eca9 cd3c
000002e0: cea4 68bc 5ffb 0cbd cf0b 253c 4f03 9c3b
000002f0: c2be 933b ee44 f4ba 5f02 3c3d 2cda b4bc
00000300: d72f c03a ae7d d8bc d66f 35bd 2a2f 18bc
00000310: 12a0 72bc 21cb 36bd 775d c1bc 6f23 06bd
00000320: 4c57 e3bc 7842 1abc 048e 8b3c ea12 3c3c
00000330: 8fe9 1e3d 4e13 393d ddf0 d43b 662b ee3c
00000340: 2e54 f6bc a936 503c f685 8fbb 1077 59bd
00000350: 570c fc3c 0d56 a43c 781c 2abd fb03 cfba
00000360: 209a 133c bc49 febc 5c2f ebbc aac4 183d
00000370: a891 41bc 2d09 4a3a ed66 86bb 5d8d 0fbd
00000380: 0ea3 143b 626b ac3c 48e4 34bb d533 273c
00000390: 86ec 1bbd 30f2 8d3c ff69 dcbb 84b0 bd3b
000003a0: b753 f7ba 093d 66bc 0910 babc 04b7 733c
000003b0: 7c41 5abd 35ef d43b f5a7 19bd a997 71bc
000003c0: 8cdc c93c 824a 553c c45b b13c db64 ae3c
000003d0: 6d1a 14bc 973f 303a 9e46 d7bc afc3 123d
000003e0: d92e d7bc e29b 21bd ec7b 253d 38ca 213c
000003f0: 9f8f cc3b 5355 acbb 0e64 8fbc a58a 1abd

conv4.0.bias f4 [128]
0.067065485 0.06420787 -0.017572464 0.023011288 -0.016656814 0.023195568 0.05713581 -0.033101086
0.03183938 0.09312357 0.048968855 -0.032027625 0.06783321 0.008074282 -0.03579109 0.07639373
0.09512564 0.081184916 -0.03924444 -0.00788898 -0.009052847 0.08062591 -0.062362175 0.05364147
0.0002572264 -0.036545675 -0.008361535 0.08282215 0.06824926 0.0684548 0.09911758 0.0071981554
-0.011520281 0.05097311 -0.0100403195 0.051750686 0.08259069 -0.032650378 0.003908417 0.01739682
-0.0068863076 0.028090749 0.017682742 -0.026756287 0.0785558 0.0009398834 0.024127379 0.053150646
0.11272757 -0.029241636 -0.033374216 0.016050197 -0.049533136 -0.0016725773 -0.010892073 0.088339515
0.018931227 0.09137373 0.003062839 0.09562739 0.08655014 0.120994374 -0.02560756 0.052325554
0.005694087 -0.07389059 0.07603464 -0.016579522 -0.046092033 0.0013283103 0.06645366 0.027586723
-0.03119173 0.080083795 0.03529663 0.019659624 0.004311642 0.09344341 0.015959272 0.02373428
-0.010073221 0.11960976 0.034975458 0.040190913 -0.009482016 0.07890418 -0.054639753 -0.0037498344
0.009108611 -0.05942424 0.027468555 -0.007894806 0.047356684 0.053141885 -0.00844617 0.0975344
0.060344253 0.116240375 -0.024183884 0.058958855 0.04068422 0.050034165 0.018393695 -0.034283537
0.03764503 -0.02075795 0.0305507 -0.010869456 -0.0028977632 -0.027550353 0.080181055 0.09255946
-0.011700553 -0.05603725 -0.0020811472 -0.035329327 0.02702722 -0.04602194 0.034208942 0.046040017
0.070340246 0.047126804 -0.041624766 -0.032140397 -0.0009106238 0.005026482 -0.043115873 -0.018384416
00000000: a159 893d 6a7f 833d 21f4 8fbc 2b82 bc3c
00000010: df73 88bc a204 be3c 3d07 6a3d 0195 07bd
00000020: 026a 023d 92b7 be3d 9193 483d 662f 03bd
00000030: 23ec 8a3d fe49 043c ae99 12bd 5174 9c3d
00000040: 3bd1 c23d 4744 a63d c7be 20bd c840 01bc
00000050: 6452 14bc 321f a53d 7b6f 7fbd 28b7 5b3d
00000060: 58dc 8639 ebb0 15bd d2fe 08bc a99e a93d
00000070: 45c6 8b3d 0832 8c3d 28fe ca3d 81de eb3b
00000080: 90bf 3cbc 2ec9 503d 2780 24bc 87f8 533d
00000090: 4f25 a93d 67bc 05bd 2e12 803b c783 8e3c
000000a0: 89a6 e1bb 921e e63c 66db 903c 0030 dbbc
000000b0: dde1 a03d 8262 763a c8a6 c53c 7eb4 593d
000000c0: b6dd e63d 288c efbc 67b3 08bd b47b 833c
000000d0: 42e3 4abd 623a dbba aa74 32bc 59eb b43d
000000e0: a915 9b3c 2622 bb3d e9b9 483b 4bd8 c33d
000000f0: 3341 b13d e6cb f73d f2c6 d1bc 5253 563d
00000100: 7795 ba3b f353 97bd 0db8 9b3d c7d1 87bc
00000110: 00cb 3cbd b31a ae3a db18 883d 8dfd e13c
00000120: cd85 ffbc f902 a43d 3393 103d 380d a13c
00000130: ad48 8d3b 425f bf3d 05bd 823c 656e c23c
00000140: 270a 25bc f6f5 f43d 6d42 0f3d 3a9f 243d
00000150: 755a 1bbc 8498 a13d efcd 5fbd c8bf 75bb
00000160: 493c 153c d566 73bd bc05 e13c 3759 01bc
00000170: 15f9 413d 4eab 593d ce61 0abc 1ec0 c73d
00000180: 892b 773d 6f0f ee3d 481d c6bc d77e 713d
00000190: 7fa4 263d a0f0 4c3d 60ae 963c e56c 0cbd
000001a0: ad31 1a3d 940c aabc 7645 fa3c ce15 32bc
000001b0: 66e8 3dbb 47b1 e1bc f735 a43d d08f bd3d
000001c0: adb3 3fbc 5187 65bd db63 08bb 7cb5 10bd
000001d0: 3068 dd3c 8081 3cbd ad1e 0c3d 7594 3c3d
000001e0: 8c0e 903d 0908 413d bb7e 2abd a6a5 03bd
000001f0: eeb6 6eba 30b5 a43b 459a 30bd ea9a 96bc

linear.weight f4 [10, 2560]
-0.1303537 -0.018728698 -0.008202367 -0.014793784 -0.03634665 -0.025799962 -0.015740484 -0.014412641
-0.004560115 0.005876855 -0.012870755 0.0034790812 -0.017377065 0.013132193 0.0055017243 0.0237756
-0.009969792 0.007838768 0.021531265 0.02911254 -0.11198668 -0.049310137 -0.004554261 -0.026799452
0.00050268363 0.006860942 -0.021567997 -0.0014281562 -0.018290492 -0.037889935 -0.02087898 -0.06288603
-0.024873458 -0.11244746 -0.117265016 -0.08150095 -0.008973215 -0.056879755 -0.04802045 -0.054531638
0.0026423724 -0.022805156 -0.011190449 -0.009564762 0.01207615 -0.0047077076 0.0161772 -0.005062997
0.024835233 -0.006370937 -0.038188342 0.0042561945 0.008106569 0.007966398 -0.015775898 -0.008159165
0.020204293 -0.012646624 0.028581822 -0.0053211506 0.012899014 -0.019841744 -0.0033143924 0.00027829883
0.0036940407 -0.013392694 0.0053716786 -0.0048506707 0.0008753854 -0.010472497 -0.0063737463 0.0026491713
-0.0011400158 0.020974962 0.02128763 0.020763867 0.012108269 -0.0055064145 0.014680375 0.025417598
0.009366242 0.011955563 0.01565679 -0.0035934318 0.015966317 -0.009310387 -0.0032965222 -0.016116336
-0.021494543 -0.019243695 -0.0036002465 -0.016067479 -0.012550467 0.023098946 -0.006237529 0.0111334
0.010795306 -0.009185285 -0.005775152 0.0045085414 0.019041762 0.0136448415 0.0076639745 -0.010375872
-0.006711788 0.012877983 -0.0037710269 0.018318867 -0.026343994 -0.018622642 -0.026335131 -0.011145339
0.016331688 0.015193234 0.011359924 0.012968286 0.02653041 -0.006291141 0.016078759 0.03206494
-0.016378641 -0.023974497 -0.030735085 -0.007460769 -0.03184422 -0.03644902 -0.043516424 0.009751942
-0.026676144 -0.026864639 -3.933707e-05 -0.027938973 -0.051668704 -0.052315533 -0.023387391 0.007275416
-0.09377773 0.00070386374 -0.0008193385 0.018511578 0.0007713228 0.011638345 -0.012878811 0.007491895
-0.014810546 -0.008983534 -0.010148827 -0.021296958 -0.00028555264 -0.02038667 -0.014431142 -0.0063319574
0.02211354 0.021648055 -0.0028442089 -0.00037622036 0.023827584 -0.009131479 -0.006656144 0.0042060087
0.0055035083 0.0034212673 0.0068037272 0.01368528 -0.009984823 -0.008181828 0.015705824 0.0009970705
-0.01927274 -0.01833361 -0.0059881685 -0.0003755175 -0.0048983907 0.011832287 0.008095076 -6.2585226e-05
-0.003433529 -0.0011946898 0.0042888615 0.027141696 -0.0038711021 -0.0084256325 -0.024355305 -0.06775363
-0.0073997458 -0.032074634 0.0018922277 -0.073083214 -0.0028112654 0.00012244967 -0.04563766 -0.06806474
0.0015158785 -0.04272379 -0.035019763 -0.026111826 0.0013693193 -0.008008647 -0.027772743 -0.050901532
0.015000704 0.006408822 0.0054174643 0.034830436 -0.022103721 0.001368524 0.0034286259 0.020933194
0.009869396 -0.020279458 -0.012941244 -0.044391353 0.010713814 -0.0050013196 0.011978037 0.0052713924
0.00973499 0.02344194 0.026476655 0.03407776 0.0007716746 -0.024612783 -0.007827813 0.022038184
0.010166867 -0.017600326 -0.0136248665 -0.011009593 -0.009026773 -0.01834797 -0.00017538543 -0.017014777
0.025422243 0.0039283703 -0.0100877695 -0.002940648 -0.0016766341 0.0163366 -0.004268275 -0.013682096
-0.017112188 -0.009188986 0.014356799 0.011666882 -0.0056904578 0.018064868 0.018943038 -0.0007342059
0.008548193 -0.019157812 0.0066967155 0.00018316337 -0.00071318244 0.010617091 -0.02078518 0.0032202383
00000000: 717b 05be ed6c 99bc 3963 06bc a161 72bc
00000010: 3ae0 14bd 715a d3bc 30f2 80bc ff22 6cbc
00000020: 046d 95bb a292 c03b dcdf 52bc 4c01 643b
00000030: 595a 8ebc 6928 573c cf47 b43b 0cc5 c23c
00000040: 5758 23bc 2d6e 003c 5662 b03c 6c7d ee3c
00000050: 4659 e5bd 6df9 49bd e93b 95bb 868a dbbc
00000060: 87c6 033a c1d1 e03b 5eaf b0bc f830 bbba
00000070: f1d5 95bc 7a32 1bbd 650a abbc 64ca 80bd
00000080: 6cc3 cbbc db4a e6bd a428 f0bd f8e9 a6bd
00000090: 6404 13bc bffa 68bd 17b1 44bd 915c 5fbd
000000a0: a72b 2d3b e1d1 babc 2558 37bc 85b5 1cbc
000000b0: 0bdb 453c 1d43 9abb 0c86 843c 7fe7 a5bb
000000c0: 4273 cb3c 4bc3 d0bb 616b 1cbd 8c77 8b3b
000000d0: 6ad1 043c 7f85 023c 753c 81bc 05ae 05bc
000000e0: 7983 a53c c933 4fbc 6d24 ea3c 0c5d aebb
000000f0: 6356 533c 278b a2bc 4736 59bb a3e8 9139
00000100: b817 723b 086d 5bbc e804 b03b 60f2 9ebb
00000110: 1f7a 653a d694 2bbc dcda d0bb b89d 2d3b
00000120: 956c 95ba afd3 ab3c 6563 ae3c fc18 aa3c
00000130: c361 463c 276f b4bb f585 703c 9138 d03c
00000140: de74 193c 44e1 433c ab42 803c c87f 6bbb
00000150: cbcb 823c 988a 18bc 770a 58bb 6806 84bc
00000160: 5315 b0bc f4a4 9dbc 1df2 6bbb f29f 83bc
00000170: 79a0 4dbc 003a bd3c 3064 ccbb dd68 363c
00000180: ccde 303c e17d 16bc 7c3d bdbb 63bc 933b
00000190: 78fd 9b3c 9d8e 5f3c 1422 fb3b 90ff 29bc
000001a0: 8fee dbbb 2dfe 523c 5523 77bb 7311 963c
000001b0: 5ccf d7bc 838e 98bc c6bc d7bc f19a 36bc
000001c0: 08ca 853c 0bed 783c fa1e 3a3c ef78 543c
000001d0: 4d56 d93c ea25 cebb 9ab7 833c 8756 033d
000001e0: 802c 86bc 2a66 c4bc 25c8 fbbc 7779 f4bb
000001f0: 166f 02bd 914b 15bd 473e 32bd 9cc6 1f3c
00000200: ee87 dabc 3b13 dcbc dbfd 24b8 46e0 e4bc
00000210: 90a2 53bd d048 56bd ea96 bfbc 9d66 ee3b
00000220: 8a0e c0bd 7f83 383a e0c8 56ba 98a5 973c
00000230: 9932 4a3a c2ae 3e3c a601 53bc 927e f53b
00000240: efa7 72bc ac2f 13bc 4447 26bc f576 aebc
00000250: 3ab6 95b9 f201 a7bc 9970 6cbc 4f7c cfbb
00000260: 7427 b53c 4357 b13c e865 3abb 713f c5b9
00000270: 1132 c33c 339c 15bc c81b dabb 8fd2 893b
00000280: c656 b43b 5737 603b cdf1 de3b 3a38 603c
00000290: 6297 23bc 130d 06bc 80a9 803c 22b0 823a
000002a0: dee1 9dbc 5e30 96bc 6638 c4bb 1be1 c4b9
000002b0: ae82 a0bb 35dc 413c 36a1 043c 3040 83b8
000002c0: 0f05 61bb 2397 9cba 9489 8c3b 4358 de3c
000002d0: 51b2 7dbb aa0b 0abc c784 c7bc 6ac2 8abd
000002e0: 9179 f2bb b160 03bd a004 f83a a7ac 95bd
000002f0: 353d 38bb d565 0039 8eee 3abd 8765 8bbd
00000300: 71b0 c63a 24ff 2ebd e270 0fbd 78e8 d5bc
00000310: bb7a b33a b336 03bc aa83 e3bc 207e 50bd
00000320: 83c5 753c 1801 d23b fc84 b13b 5caa 0e3d
00000330: dd12 b5bc 0c60 b33a ccb2 603b 177c ab3c
00000340: 3fb3 213c 1b21 a6bc 8307 54bc b5d3 35bd
00000350: fe88 2f3c 1ce2 a3bb 873f 443c a5bb ac3b
00000360: 827f 1f3c 5009 c03c 92e5 d83c 1f95 0b3d
00000370: 354a 4a3a bfa0 c9bc 3a40 00bc 6c89 b43c
00000380: ee92 263c 8f2e 90bc d53a 5fbc 9461 34bc
00000390: 08e5 13bc 7b4e 96bc abe7 37b9 9362 8bbc
000003a0: 4f42 d03c 8fb9 803b 2c47 25bc e3b7 40bb
000003b0: 81c2 dbba 55d4 853c e3dc 8bbb df2a 60bc
000003c0: dc2e 8cbc 678d 16bc c838 6b3c 7326 3f3c
000003d0: 0577 babb c6fc 933c 6e2e 9b3c b977 40ba
000003e0: b80d 0c3c d8f0 9cbc 1f70 db3b 8b0f 4039
000003f0: ddf4 3aba 4ff3 2d3c af45 aabc a20a 533b

linear.bias f4 [10]
-0.042280667 -0.058119968 0.023192443 0.018630512 -0.040714107 -0.024576182 -0.042931855 -0.008773632
0.037380666 -0.026831858
00000000: 7e2e 2dbd 340f 6ebd 14fe bd3c 049f 983c
00000010: d6c3 26bd fd53 c9bc 50d9 2fbd 48bf 0fbc
00000020: 781c 193d 7cce dbbc
