audiocnn/feedforwardnet.pth (torch, 494683 bytes, 10 tensors)

conv1.0.weight f4 [16, 1, 3, 3]
0	0x3dcef6dd	0.10105679
1	0x3e3c2c9f	0.18376397
2	0x3d8d1a31	0.06889761
3	0xbdf4db72	-0.11955918
4	0xbdde41d0	-0.108523965
5	0x3d9df86c	0.07713398
6	0xbe160064	-0.14648587
7	0xbe588568	-0.2114464
8	0x3e79ba34	0.24387437
9	0x3dd9d7c2	0.10636856
10	0x3e84dec2	0.259512
11	0xbd93e2ad	-0.07220969
12	0xbe77747a	-0.24165526
13	0x3e5127c5	0.20425327
14	0xbebd7d73	-0.37009773
15	0x3d2aceb6	0.04170104
16	0xbd4e17a6	-0.05031552
17	0x3e1e4bc5	0.15458591
18	0xbdf76100	-0.12079048
19	0xbe000863	-0.125032
20	0xbe412ff7	-0.18865953
21	0x3e4bd9f5	0.19907363
22	0x3e0ed683	0.13949017
23	0x3dc6fae2	0.09715821
24	0x3dfd367c	0.12363908
25	0x3e8e11da	0.27747995
26	0x3e908ee9	0.28234032
27	0xbe5ff2a7	-0.21869908
28	0x3e4f4d50	0.20244336
29	0x3e93b786	0.28850955
30	0xbe98963f	-0.2980213
31	0x3e9039e4	0.28169167
32	0xbde30264	-0.1108444
33	0xbe4db8cd	-0.20090027
34	0x3e1128bc	0.14175695
35	0xbe1ce78e	-0.15322706
36	0x3ea12a7b	0.31477723
37	0xbe7ac5e2	-0.24489549
38	0xbde2eef1	-0.11080731
39	0xbda55968	-0.080736935
40	0x3e407cd1	0.18797614
41	0x3dd6d9fb	0.10490795
42	0xbd75f079	-0.060043786
43	0x3e9deba9	0.30843857
44	0x3e0bba93	0.13645391
45	0x3e5f72b7	0.21821104
46	0xbe13a57e	-0.14418599
47	0xbdfb18e7	-0.12260609
48	0x3d27d36b	0.04097311
49	0xbd0a2549	-0.033726964
50	0x3e226222	0.15857747
51	0xbc847f7f	-0.016174076
52	0x3c12a4ff	0.008950471
53	0xbe3cab9c	-0.18424839
54	0x3e51f3bd	0.20503135
55	0xbd0dcafc	-0.03461741
56	0xbe0373be	-0.12837121
57	0xbe9f70b0	-0.3114066
58	0x3e80a61f	0.2512674
59	0xbe9bbb59	-0.30416372
60	0x3ea51a0f	0.32246444
61	0x3da123aa	0.078681305
62	0xbe5dbbc9	-0.21653666
63	0xbe532229	-0.206185
64	0x3e4e069c	0.20119709
65	0x3e593ec8	0.21215355
66	0xbe6a12de	-0.2285876
67	0x3e1e9ea1	0.154902
68	0x3cc413f1	0.02393529
69	0xbdeeeb29	-0.11665947
70	0xbd1c3165	-0.038133044
71	0xbea15534	-0.31510317
72	0x3d4ee3ca	0.050510205
73	0x3b7b8146	0.0038376614
74	0xbe01cea3	-0.12676482
75	0xbe55ea38	-0.20890129
76	0x3e9026d1	0.28154615
77	0x3e6305c6	0.22170171
78	0xbd715296	-0.05891665
79	0x3d5b70ea	0.05357448
80	0xbe5c6b74	-0.21525365
81	0x3d7503ec	0.059818193
82	0x3e18ecc1	0.14934064
83	0xbb1754c7	-0.0023091303
84	0x3e1d484c	0.1535961
85	0xbe771433	-0.24128799
86	0x3e414496	0.1887382
87	0xbc1ec330	-0.009690091
88	0x3dee30a7	0.116303734
89	0xbe365524	-0.17805916
90	0x3e60d5ed	0.21956606
91	0x3dca9a3c	0.09892699
92	0xbe79e802	-0.2440491
93	0xbcf89956	-0.030346554
94	0xbe944ba8	-0.2896397
95	0xbdc10799	-0.09425277
96	0x3e724413	0.23658781
97	0x3dd9ce94	0.10635105
98	0xbe92e292	-0.28688484
99	0xbe890237	-0.26759502
100	0xbe9ccc4e	-0.30624622
101	0xbe371cd7	-0.17882095
102	0x3e23b3c7	0.15986548
103	0x3ea4867e	0.3213386
104	0xbe77ec39	-0.24211206
105	0x3ddc20f0	0.1074847
106	0x3ebf04b9	0.3730829
107	0xbe6c6933	-0.23087005
108	0xbd298e05	-0.041395206
109	0xbd708121	-0.058716897
110	0x3e8036fb	0.25041947
111	0x3e07019c	0.13184208
112	0x3c3c012e	0.011474891
113	0x3e4d4e4d	0.200494
114	0x3bf408fb	0.0074473596
115	0x3e936a76	0.2879216
116	0x3ddf2757	0.10896175
117	0x3e903756	0.28167218
118	0x3d759359	0.059954975
119	0x3e90098b	0.2813228
120	0x3da67657	0.0812804
121	0x3e3b6071	0.18298508
122	0x3e2da988	0.16959202
123	0xbe81a97f	-0.25324628
124	0x3d0cc9f9	0.034372304
125	0x3e5f0116	0.21777758
126	0x3e82a8b0	0.25519323
127	0xbc5e9326	-0.013584888
128	0x3e99ce1f	0.3004007
129	0x3d2d7b74	0.042354062
130	0xbe3d0e5c	-0.18462509
131	0xbe5aebd2	-0.21379021
132	0x3e24af44	0.16082484
133	0xbe88a1c0	-0.26685905
134	0xbd49d5a6	-0.049276017
135	0xbe395dbd	-0.18102165
136	0xbddda423	-0.10822322
137	0x3e2a9d45	0.16661556
138	0xbdfe579a	-0.124190524
139	0x3e99d0f5	0.30042234
140	0xbe9cf51d	-0.30655757
141	0xbe9daa09	-0.3079379
142	0x3eaccc52	0.33749634
143	0xbdd66c9d	-0.10469935

conv1.0.bias f4 [16]
0	0xbde42959	-0.11140699
1	0x3da935c2	0.082622066
2	0xbe7f3fcb	-0.24926679
3	0x3e35aa52	0.17740753
4	0x3bbf3081	0.0058346395
5	0xbe141ac6	-0.14463338
6	0xbde15894	-0.11003223
7	0x3e625b06	0.22105035
8	0xbe0fc724	-0.1404081
9	0xbc3cd7f9	-0.011526101
10	0x3dd06d6d	0.10177121
11	0x3eae0c6e	0.33993858
12	0xbe890372	-0.2676044
13	0x3e58130c	0.21101016
14	0xbe328ad7	-0.17435776
15	0xbe194c57	-0.14970528

conv2.0.weight f4 [32, 16, 3, 3]
0	0x3da2debb	0.07952639
1	0x3ce14e55	0.027503172
2	0xbdaed266	-0.08536224
3	0xbdb24d3d	-0.08706138
4	0xbd5e18d7	-0.054222908
5	0xbca255e9	-0.019816356
6	0xbcf02fdb	-0.029319694
7	0xbbb151dd	-0.00541137
8	0xbdccf5e8	-0.100078404
9	0x3db6a089	0.089173384
10	0xbb418b82	-0.0029532616
11	0x3d5a071e	0.053229444
12	0xbcdb8823	-0.026798313
13	0x3d2564e9	0.04037944
14	0xbd6ba8da	-0.057534076
15	0x3da35481	0.07975102
16	0x3c4b0ab3	0.012392688
17	0xbdbc62c0	-0.091985226
18	0x3dd00af4	0.10158339
19	0x3d467bd0	0.04845792
20	0xbdbce6d4	-0.092237145
21	0xbc537567	-0.012906409
22	0x3d874212	0.06604399
23	0xbe0452c8	-0.12922204
24	0xbcd51685	-0.026011715
25	0xbddb5220	-0.107090235
26	0xbdbd070a	-0.09229858
27	0xbd624e52	-0.055250473
28	0xbc4dc598	-0.012559317
29	0xbda740d1	-0.081666596
30	0x3a5ae472	0.0008350081
31	0xbc68d39b	-0.014210607
32	0xbdaf0777	-0.08546346
33	0xbd867a3e	-0.065662846
34	0xbdc2bc4c	-0.09508571
35	0xbd9706cc	-0.07374343
36	0x3b2ce703	0.002638281
37	0x3ca6e500	0.020372868
38	0xbdc4ddb7	-0.09612601
39	0x3d49aa36	0.04923459
40	0xbd1e9aff	-0.038722035
41	0xbdfadcdc	-0.12249157
42	0x3da02870	0.07820213
43	0xbcbf9a7d	-0.023389095
44	0xbdca0fa0	-0.098662615
45	0x3d608784	0.054816738
46	0x3dca0852	0.09864868
47	0x3c6ccef6	0.01445364
48	0x3d88b6de	0.06675504
49	0x3b9dd40d	0.004816538
50	0xbc230681	-0.009950281
51	0x3dc624ef	0.09675013
52	0x3dd2d479	0.10294432
53	0x3cc88665	0.024478147
54	0xbbfe1add	-0.007754667
55	0x3db5d7d5	0.08879057
56	0xbd57e959	-0.052712772
57	0x3cea330b	0.028588792
58	0xbd38e731	-0.045142356
59	0x3cc0b689	0.02352454
60	0xbd8b375c	-0.06797668
61	0xbbc9fefc	-0.0061644297
62	0xbd83300d	-0.06405649
63	0x3d4409c4	0.047860876
64	0xbcd672f3	-0.026177859
65	0xbd1b2ccc	-0.03788452
66	0xbd89e5c2	-0.06733276
67	0xbd1b83bd	-0.037967432
68	0xbdf73254	-0.12070146
69	0x3d748019	0.059692476
70	0x3d9d2615	0.07673279
71	0xbd8112c0	-0.063024044
72	0x3c7f2fa2	0.015575321
73	0x3cacca9c	0.021092705
74	0xbda9ad48	-0.08285004
75	0x3cc023a3	0.023454493
76	0x3c0930f1	0.008373485
77	0xbd85a0ad	-0.06524787
78	0x3d75158c	0.059835
79	0x3d8be202	0.06830217
80	0xbd6f275b	-0.05838714
81	0xbd93ec56	-0.07222812
82	0x3a20a911	0.00061287085
83	0xbcf59ceb	-0.02998205
84	0x3dc19313	0.0945188
85	0xbd6e574b	-0.058188718
86	0xbd974a20	-0.07387185
87	0xbd4e8e06	-0.050428413
88	0xbd160914	-0.03662975
89	0x3cad88e9	0.021183448
90	0x3d95e2c7	0.07318645
91	0xbd51a480	-0.05118227
92	0xbc2c9380	-0.010533214
93	0x3da4a6c1	0.08039618
94	0x3dbccfdf	0.09219336
95	0xbd3f8882	-0.046761043
96	0x3da73337	0.08164065
97	0x3d36cf9e	0.044631593
98	0xbd033e52	-0.032041855
99	0x3d902f6c	0.07040295
100	0xba365c6e	-0.0006956522
101	0x3d57edda	0.052717067
102	0xbc82dd0a	-0.01597454
103	0xbd3ff226	-0.04686179
104	0xbb363751	-0.0027803967
105	0xbbcff0d6	-0.0063458486
106	0xbb8d1084	-0.0043049473
107	0xbd2a8643	-0.04163195
108	0x3cbf487a	0.02334999
109	0xbd0a18c0	-0.03371501
110	0xbd900a13	-0.070331715
111	0x3db60711	0.088880666
112	0x3b99472b	0.0046776733
113	0xbe05ff65	-0.13085707
114	0x3c6dac05	0.014506345
115	0xbc5bcfb6	-0.013416221
116	0xbd692c65	-0.056927104
117	0x3c925d51	0.017866762
118	0xbbab352b	-0.005224844
119	0x3d342418	0.043979734
120	0xbcd9a60b	-0.026568433
121	0xbb14e19f	-0.0022717488
122	0xbad19270	-0.0015989076
123	0x3d9b29f5	0.07576362
124	0x3c21f52e	0.009885116
125	0xbd45876a	-0.048224844
126	0x3d088224	0.033327237
127	0x3ca5a5fa	0.020220745
128	0xbd0e402b	-0.034729164
129	0xbcf35b17	-0.029706521
130	0x3d940fdf	0.0722959
131	0xbc793482	-0.015210273
132	0x3d993d93	0.074824475
133	0xbda40b6d	-0.08009992
134	0xbd9f2bb7	-0.0777201
135	0x3d04c2b0	0.03241223
136	0xbcb4cb62	-0.022069637
137	0x3cd53118	0.026024386
138	0x3c9c48db	0.019077709
139	0xb867fbc3	-5.5309163e-05
140	0x3c899572	0.016794894
141	0x3cc35af3	0.023847079
142	0xbb89a0ab	-0.0042000613
143	0xbd310fe8	-0.04322806
144	0x3b994ac6	0.004678103
145	0x3cf51b68	0.029920295
146	0x3d45b6d1	0.04827005
147	0xbdbae235	-0.09125177
148	0xbd8007c7	-0.062514834
149	0xbc8b4866	-0.017002296
150	0xbcaf9856	-0.021434944
151	0xbd2a0f6a	-0.041518606
152	0xbdcdfb12	-0.100576535
153	0xbccaf412	-0.024774585
154	0x3c0688b5	0.008211304
155	0xbd86badc	-0.06578609
156	0x3cf21252	0.029549751
157	0x3d718aa7	0.05897012
158	0x3d84918a	0.06473072
159	0x3d27f80e	0.041008048
160	0x3d26528f	0.040606078
161	0x3d9f7c2e	0.07787357
162	0x3d4b0a7a	0.049570538
163	0xbc2912f9	-0.010319465
164	0x3cedc681	0.029025318
165	0x3d062de7	0.03275862
166	0xbd9a693a	-0.075396016
167	0x3b9662b3	0.0045894026
168	0xbe0092cc	-0.12555999
169	0x3d191dfe	0.03738212
170	0xbce30111	-0.02771047
171	0xbd30dfc6	-0.043182157
172	0x3c9ed2e4	0.01938767
173	0xbdb1fdfa	-0.0869102
174	0x3cd00446	0.025392663
175	0x3d694065	0.056946177
176	0xbdb73b5d	-0.089468695
177	0xbd3885f6	-0.04504963
178	0xbd62f764	-0.05541171
179	0x3dbf9b47	0.09355789
180	0xbcd287e2	-0.02569956
181	0xbcab0c46	-0.020879876
182	0x3cf48ad4	0.029851355
183	0x3bebad20	0.007192269
184	0x3c21c03a	0.009872491
185	0x3cee664a	0.02910151
186	0xbceb846d	-0.028749669
187	0xbdb056e4	-0.08610323
188	0x3d2a52e6	0.041582964
189	0x3d7e6ecc	0.062117383
190	0xbca3ee85	-0.020011196
191	0xbd44f3d0	-0.04808408
192	0xbd27d1d2	-0.040971585
193	0xbd9cb24e	-0.076511964
194	0xbd47e1fc	-0.0487995
195	0xbc8d739e	-0.017267045
196	0xbce88e6a	-0.02838822
197	0xbd0bfaf4	-0.034174874
198	0x3d05d4c5	0.032673616
199	0xbcf8deb4	-0.03037963
200	0x3ca235ef	0.019801108
201	0xbd1bb854	-0.038017586
202	0xbd426333	-0.047457885
203	0x3be8224c	0.0070841666
204	0xbbaf41b6	-0.0053484095
205	0x3cccc7fb	0.024997702
206	0xbd808e80	-0.0627718
207	0x3d06d1c1	0.03291488
208	0xbccc8b35	-0.024968723
209	0x3d1386eb	0.03601734
210	0x3c0ff186	0.008785611
211	0x3d547bdb	0.05187593
212	0xbd946f05	-0.07247738
213	0x3ccb6f20	0.024833262
214	0x3b803257	0.003912251
215	0xbd5ab7ab	-0.053397816
216	0x3ce1528d	0.027505184
217	0x3d68b5c3	0.056813966
218	0xbd197479	-0.037464593
219	0xbdbcdbcd	-0.09221611
220	0xbd3b4b42	-0.04572607
221	0x3d6f8f8d	0.05848651
222	0x3d4adfe5	0.04952993
223	0xbd0bc8ce	-0.03412705
224	0x3caf5b72	0.02140591
225	0xbd219bf5	-0.039455373
226	0xbd10c1d0	-0.035341084
227	0xbc8c2f99	-0.01711254
228	0xbcf595e4	-0.0299787
229	0xbc29daaf	-0.01036708
230	0xbd4bb0c2	-0.049729116
231	0xbc8842f1	-0.016633483
232	0x3da55e7b	0.08074661
233	0x3da404c3	0.08008721
234	0x3c5e57a4	0.0135707
235	0xbcf5077d	-0.029910797
236	0xbb85d57e	-0.004084288
237	0xbb720bae	-0.0036933231
238	0xbd0c4447	-0.0342448
239	0xbc1762d5	-0.009239872
240	0xbd81a172	-0.063296214
241	0xbc3c861f	-0.011506586
242	0xb9e944d4	-0.00044492504
243	0xbc0b2a8c	-0.008494031
244	0xbd1a1c33	-0.03762455
245	0x3d1c3289	0.03813413
246	0xbd0661c9	-0.0328081
247	0xbdd7578a	-0.105147436
248	0xbd15f34d	-0.036608983
249	0xbdcfb2ca	-0.10141523
250	0xbd5fdc2a	-0.054653324
251	0x3d840bb2	0.06447543
252	0xbc9f2b35	-0.019429782
253	0xbdb7a795	-0.089675106
254	0xbbb15d4d	-0.0054127336
255	0x3c3ffc99	0.011717939

conv2.0.bias f4 [32]
0	0xbd65d4dd	-0.056111205
1	0xbde3f33f	-0.1113038
2	0xbe0e594e	-0.13901255
3	0xbd6f2699	-0.05838642
4	0xbd74587c	-0.059654698
5	0xbd75c68d	-0.060003806
6	0x3cff56ff	0.031169413
7	0x3ca55e0c	0.020186447
8	0xbc7ca0f4	-0.015419234
9	0xbb482e10	-0.0030545034
10	0xbdb8d905	-0.09025768
11	0xbcefc2a9	-0.029267626
12	0xbdad0c1e	-0.08449577
13	0xbddd79fd	-0.10814283
14	0xbd3ddab9	-0.04635117
15	0x3ba29e09	0.004962687
16	0xbbbc6206	-0.00574899
17	0xbb14bdac	-0.002269606
18	0xbd6aaf3f	-0.057296034
19	0x3dbfdeca	0.093686655
20	0x3bcf9446	0.0063348142
21	0xbdb1d89a	-0.086838916
22	0xbdcbfca8	-0.099603
23	0xbd997771	-0.07493485
24	0xbd4ce06a	-0.050018705
25	0xbdc2a268	-0.09503633
26	0xbddf0c9a	-0.108910754
27	0x3be6fd36	0.007049228
28	0xbbecb515	-0.007223735
29	0x3af29370	0.0018507075
30	0xbe18ea35	-0.14933093
31	0x3d6597bd	0.056052912

conv3.0.weight f4 [64, 32, 3, 3]
0	0xbc615d05	-0.013755088
1	0xbbcc5747	-0.00623599
2	0x3b4476e0	0.0029978082
3	0xbda212fe	-0.07913779
4	0xbd424fc3	-0.047439348
5	0xbd4edb01	-0.050501827
6	0x3c89ae54	0.016806759
7	0xbd2c15d8	-0.04201302
8	0xbd856699	-0.065137096
9	0x3bb1ea05	0.0054295086
10	0x3b589535	0.0033047919
11	0xbd1ec643	-0.038763296
12	0x3d2271b0	0.039659202
13	0xbb997a75	-0.0046837875
14	0xbce23a18	-0.027615592
15	0x3d25f081	0.040512566
16	0x3d20aa56	0.039224945
17	0x3d098d80	0.03358221
18	0xbaf576af	-0.0018727387
19	0x3c09f954	0.008421261
20	0xbcb6b5c3	-0.022303468
21	0xbd03812e	-0.032105617
22	0xbc2e732d	-0.010647577
23	0xbd67a636	-0.056554995
24	0x3d52f91a	0.051507093
25	0xbcfdae5c	-0.03096693
26	0x3b8b91d6	0.0042593284
27	0x3d08519a	0.033280946
28	0xbd6efd76	-0.058347188
29	0xbc8044c3	-0.015657788
30	0xbd3d00be	-0.046143286
31	0xbd46dd25	-0.048550744
32	0xbd79f6f9	-0.061026547
33	0xbcdaedc6	-0.026724707
34	0x3c971f47	0.018447531
35	0xbcdb064d	-0.026736403
36	0xbc56cd7f	-0.0131105175
37	0xbc761fca	-0.015022228
38	0xbd077715	-0.03307255
39	0xbd0a6cc0	-0.03379512
40	0x3d663b43	0.05620886
41	0xbcd7a0d9	-0.026321815
42	0xbcddba62	-0.027066413
43	0xbceda6c5	-0.029010186
44	0x3d090d5a	0.03346
45	0xbd8597e6	-0.06523113
46	0x3bd7ac22	0.006581799
47	0xbb99d7ef	-0.0046949307
48	0x3b5dadca	0.003382551
49	0xbd0648d4	-0.032784298
50	0x3b993e0e	0.004676587
51	0xbbdbfe1f	-0.006713643
52	0xbd809c61	-0.06279827
53	0x3d1fc780	0.039008617
54	0x3cdcf478	0.02697204
55	0xbd21dd38	-0.03951761
56	0x3d02acdd	0.031903137
57	0x3c948aee	0.018132653
58	0x3c9ee079	0.019394146
59	0xbd6180f6	-0.055054627
60	0xbd789df7	-0.060697522
61	0x3b2785d3	0.0025561943
62	0xbd8784e5	-0.066171445
63	0xbc38ac87	-0.0112716025
64	0x3ce4bbc7	0.02792157
65	0x3cd98035	0.026550392
66	0xba886e85	-0.0010408914
67	0x3d30e2f8	0.043185204
68	0xbd0c6a18	-0.034280866
69	0x3c36168a	0.011113772
70	0xbd821063	-0.06350782
71	0xbca7a905	-0.020466337
72	0x3d3a286f	0.045448717
73	0xbd7633d5	-0.060108025
74	0xbd3911ff	-0.045183178
75	0xbd41f80d	-0.0473557
76	0x3d4095b3	0.047017764
77	0x3cf7996f	0.03022453
78	0xbbb0c436	-0.005394484
79	0x3bfd4c30	0.0077300295
80	0xbd680ee9	-0.056654844
81	0x3d292e9b	0.041304212
82	0x3d298c1d	0.041393388
83	0xbdb42f76	-0.08798115
84	0xbc4d0df6	-0.012515536
85	0xbc9711d8	-0.018441126
86	0xbd7b07e2	-0.061286815
87	0x3cefde65	0.02928085
88	0x3c49d156	0.012317976
89	0xbc170264	-0.009216879
90	0xbd20f0e4	-0.03929223
91	0xbcf7ee93	-0.030265128
92	0xbd62bf48	-0.0553582
93	0x3c6544e3	0.013993475
94	0xbc9c781e	-0.019100245
95	0xbd70eff7	-0.0588226
96	0x3d235e59	0.0398849
97	0x3ceef6ff	0.029170511
98	0xbd31616f	-0.04330581
99	0x3bbdf20f	0.005796678
100	0xbcb4672d	-0.022021854
101	0xbd532406	-0.051548027
102	0xbc385d13	-0.011252659
103	0xbd326fa9	-0.04356352
104	0x3c32a1cd	0.010902834
105	0x3d04802a	0.03234879
106	0x3d51b39f	0.05119669
107	0x3cec1a18	0.028821036
108	0xbcdf858f	-0.027285365
109	0x3d586f48	0.0528405
110	0xbd692519	-0.056920145
111	0x3c8182ed	0.0158095
112	0xbcef3305	-0.029199133
113	0xbd30aae7	-0.043131735
114	0x3c47c2a5	0.012192403
115	0xbb8d7c28	-0.004317779
116	0xbbe0401a	-0.006843579
117	0x3d001c78	0.03127715
118	0x3c90ca3e	0.017674562
119	0x3d41736a	0.047229208
120	0x3ce0fad1	0.027463349
121	0x3c2bc5e6	0.010484194
122	0xbbf99ec7	-0.0076178047
123	0xbc23b6ea	-0.009992341
124	0x3c69a63f	0.014260828
125	0x3d0189f4	0.031625703
126	0xbbb59144	-0.0055409987
127	0xbd5c2d1e	-0.053753965
128	0x3c6c8537	0.014436058
129	0xbd119891	-0.03554589
130	0x3cc47bdc	0.023984842
131	0x3c0da11c	0.0086443685
132	0x3c8a0433	0.016847705
133	0xbc9bf30c	-0.019036792
134	0x3c80af4d	0.01570859
135	0xbca574f3	-0.020197367
136	0xbd51597d	-0.051110733
137	0x3cea5c87	0.028608574
138	0x3d04c3f8	0.032413453
139	0x3d6685a6	0.0562798
140	0xbc9ced52	-0.019156132
141	0xbd3ade3e	-0.045622103
142	0xbd0e0116	-0.034669004
143	0xbd1b654c	-0.0379384
144	0xbb128f5e	-0.0022363286
145	0x3d36b620	0.04460728
146	0xbb2bdc57	-0.0026223862
147	0x3c814e61	0.015784444
148	0x3d44d97d	0.048058975
149	0x3bbc017f	0.005737483
150	0xbd535f07	-0.051604297
151	0x3c6bc246	0.01438958
152	0xbd8656c2	-0.065595165
153	0x3c0cf6f9	0.008603805
154	0x3d298402	0.041385658
155	0x3ca3839a	0.019960213
156	0x3cf55ddd	0.029951984
157	0xbd6479cc	-0.055780217
158	0xbd84d06d	-0.064850666
159	0xbd11b7c2	-0.035575636
160	0x3ce34a94	0.027745523
161	0xbce191bc	-0.027535312
162	0xbd162162	-0.03665293
163	0xbd517de8	-0.051145464
164	0x3d22f4de	0.039784305
165	0xbc0ce497	-0.008599422
166	0xbc892952	-0.016743336
167	0x3c9b3b14	0.01894907
168	0xbce0206e	-0.027359214
169	0xbd817def	-0.06322848
170	0xbc8abd8f	-0.016936092
171	0xbc0a222d	-0.008431
172	0xbca94a9f	-0.020665465
173	0xbcd98b55	-0.026555697
174	0x3c315809	0.010824212
175	0x3d1828bf	0.037148234
176	0x3d4d1d5f	0.05007684
177	0x3d49b275	0.049242456
178	0xbca4981e	-0.020092066
179	0x3d2b5fbf	0.041839357
180	0x3d2caf4f	0.042159375
181	0x3cd4d723	0.025981491
182	0x3d3305cd	0.043706704
183	0xbcbcbb7f	-0.023038624
184	0x3d4f5b40	0.050624132
185	0xbd0ce598	-0.034398645
186	0x3d5088ce	0.050911717
187	0xbcdcdde4	-0.026961274
188	0x3d2607bb	0.040534716
189	0xbd204031	-0.039123718
190	0x3b8f526d	0.0043738396
191	0x3c932b0f	0.017964868
192	0x3ca1f5b8	0.019770488
193	0x3a4cac40	0.00078076497
194	0x3ccc76f6	0.024959069
195	0xbcbb0444	-0.022829182
196	0xbd006022	-0.03134168
197	0x3c1790fc	0.009250876
198	0xbd6b3c4c	-0.05743055
199	0xbbc1f17a	-0.005918679
200	0xbd6ec33b	-0.058291655
201	0x3cede87e	0.029041525
202	0xbc757770	-0.014982089
203	0xbd3dadf4	-0.046308473
204	0x3d2c3045	0.04203822
205	0xbd3b1ed5	-0.0456837
206	0xbc00d33e	-0.007862864
207	0xbc80cbc9	-0.015722172
208	0xbd502f61	-0.050826434
209	0xbcd66fc2	-0.026176337
210	0xba8c37e5	-0.001069781
211	0x3cd26681	0.025683643
212	0x3c15d1fb	0.0091443015
213	0x3bf5b740	0.0074986517
214	0xbd0d39c5	-0.03447892
215	0x3d17e95c	0.037087783
216	0xbcbd29f3	-0.023091292
217	0xbd6203e5	-0.055179495
218	0xba225184	-0.00061919563
219	0xbd984c58	-0.074364364
220	0xbd62a74d	-0.05533533
221	0xbd4ef437	-0.05052587
222	0xbd4f717e	-0.050645344
223	0x3d2e9cb5	0.042629916
224	0xbd8c723a	-0.068577245
225	0xbcf9a970	-0.030476302
226	0x3d38005e	0.044922225
227	0x3c6cbcd9	0.014449322
228	0xbcfe6c16	-0.031057399
229	0x3d4eaf89	0.050460372
230	0x3ccc574c	0.02494397
231	0xbce3a54a	-0.027788777
232	0x3cbdbcee	0.023161378
233	0xba47f5d0	-0.00076278765
234	0xbcc1ad8b	-0.023642322
235	0x3d0a83a4	0.03381695
236	0x3c3320a6	0.010933077
237	0xbc351786	-0.011052972
238	0xbd4d3c83	-0.050106537
239	0xbd3953da	-0.045245983
240	0x3d38a63f	0.04508042
241	0x3c8ebd5f	0.017424284
242	0xbd4b68cb	-0.049660485
243	0x3cad871f	0.021182595
244	0xbb2a3dd2	-0.002597679
245	0x3b809849	0.003924404
246	0x3d18b38e	0.03728061
247	0x3c14260e	0.009042276
248	0xbd74b16e	-0.059739523
249	0xbc1d71c0	-0.00960964
250	0xbd642dff	-0.055707928
251	0xbcee6ca0	-0.02910453
252	0xbb284f4a	-0.0025682026
253	0x3c81968b	0.015818855
254	0xbc31b743	-0.010846916
255	0x3cd571f8	0.026055321

conv3.0.bias f4 [64]
0	0xbd811b11	-0.06303991
1	0xbd299379	-0.041400407
2	0xbd28d430	-0.041217983
3	0xbc805d7f	-0.015669582
4	0xbcd035a9	-0.025416212
5	0x3dde00b3	0.10839977
6	0xbd8c0d86	-0.06838517
7	0xbd45e41f	-0.048313256
8	0xbcfa55ea	-0.030558545
9	0x3ad06062	0.0015897865
10	0xbd773d31	-0.06036109
11	0xbd4dd7bf	-0.05025458
12	0x3d4fd76f	0.050742563
13	0xbcc73f4d	-0.024322176
14	0xbca89bc9	-0.020582097
15	0xbd703f2a	-0.058653988
16	0xbcf06439	-0.029344665
17	0xbdf474ab	-0.11936315
18	0xbd3a03a5	-0.045413632
19	0xbd981b5f	-0.074270956
20	0xbd7b6975	-0.06137987
21	0xbd97181e	-0.07377647
22	0xbdc33fe9	-0.09533674
23	0xbce54ba8	-0.027990177
24	0xbc6f5484	-0.014607552
25	0x3d903615	0.07041565
26	0x3cd13b88	0.025541082
27	0xbd118ca8	-0.03553453
28	0xbcdcc062	-0.026947204
29	0x3b9768dd	0.004620655
30	0x3d874afa	0.066060975
31	0x3e1494bb	0.14509861
32	0xbd14dd66	-0.036343955
33	0xbd97dee5	-0.07415561
34	0xbcd663e8	-0.026170686
35	0xbd3b4f5e	-0.045729987
36	0xbcbf8212	-0.023377452
37	0xbcd1fb60	-0.02563256
38	0xbd8a1f5d	-0.06744263
39	0xbdeda388	-0.11603457
40	0xbcb36bcc	-0.021901987
41	0xbc37f601	-0.0112280855
42	0xbda3795a	-0.0798213
43	0xbca5b744	-0.02022899
44	0xbe021bb6	-0.12705883
45	0x3dc79e60	0.097470045
46	0x3e0b78a0	0.13620234
47	0xbcd2270d	-0.025653386
48	0xbd4a0176	-0.0493178
49	0x3e1b6f6a	0.1517922
50	0xbcf0b7ad	-0.029384458
51	0xbdc0e0fa	-0.09417911
52	0xbd205ade	-0.039149158
53	0xbd13d22b	-0.036089104
54	0x3d8e308f	0.069428556
55	0x3cf7d52b	0.030253014
56	0xbd3aa3ee	-0.04556649
57	0x3dd1b775	0.1024007
58	0xbca6016d	-0.020264352
59	0xbcfe6a45	-0.031056533
60	0x3de79f21	0.11309648
61	0xbc4f1fa2	-0.012641819
62	0xbceb62af	-0.02873358
63	0xbcc3654f	-0.023852019

conv4.0.weight f4 [128, 64, 3, 3]
0	0xbc217a72	-0.009855853
1	0xbc2ac83a	-0.010423714
2	0xbcaf611f	-0.021408616
3	0x3cccd3b9	0.025003301
4	0xbc6611dc	-0.014042344
5	0xbd07f033	-0.033188056
6	0xbc9a5bf1	-0.01884267
7	0xbc1078cd	-0.008817864
8	0x3b15c9cd	0.0022855878
9	0xbc7c20eb	-0.015388708
10	0x3c8a7680	0.016902208
11	0x3d29de27	0.041471627
12	0xbc9fd865	-0.019512365
13	0xbd236ca3	-0.039898526
14	0xbcb27089	-0.021782177
15	0x3c052253	0.008125859
16	0x3b62d40a	0.0034611248
17	0xbc690893	-0.014223236
18	0xbc600b54	-0.013674576
19	0xbd0738e0	-0.033013225
20	0x3bb176fb	0.005415795
21	0xbd48d972	-0.049035497
22	0x3b867bdb	0.00410412
23	0x3c7bc737	0.015367321
24	0x3cd27ae1	0.025693359
25	0xbcccbd23	-0.024992531
26	0x3c828c0b	0.015935918
27	0xbd5ae263	-0.053438555
28	0x3a56dc73	0.00081963016
29	0x3cb3ca56	0.021947067
30	0xbbaaf1f5	-0.005216832
31	0xbca6939e	-0.020334061
32	0xbc4df9d1	-0.012571768
33	0xbd08927b	-0.03334282
34	0xbcd509d4	-0.026005663
35	0xbba8a3e4	-0.0051464904
36	0x3ceda487	0.029009117
37	0x3c46ec9c	0.012141373
38	0x3cdecb43	0.027196532
39	0xbd2829c4	-0.041055456
40	0x3d0ce1fe	0.03439521
41	0xbca95e45	-0.020674834
42	0xbcf396f1	-0.02973506
43	0xbc4612ec	-0.012089472
44	0xbc3fb93e	-0.01170188
45	0x3c1dda1c	0.009634521
46	0xbd0c32d1	-0.03422815
47	0x3cf80a37	0.030278308
48	0xbc3fca2a	-0.0117059145
49	0xbbd0cdd0	-0.006372191
50	0xbcc6e287	-0.024277939
51	0x3cdb68a6	0.026783299
52	0x3c01952f	0.007909103
53	0xbb9ef19f	-0.004850581
54	0xbc4db124	-0.012554441
55	0xbcf98e46	-0.03046335
56	0x3ccd736e	0.025079455
57	0xbb9e04c1	-0.004822344
58	0x3b37fd01	0.0028074386
59	0x3c96dfed	0.018417323
60	0xbd0491b4	-0.032365516
61	0xbb8fe826	-0.004391688
62	0xbd5446c1	-0.05182529
63	0xbccf2daf	-0.025290338
64	0x3c7c3774	0.01539408
65	0x3bf8a2bb	0.0075877584
66	0x392985c2	0.00016166925
67	0xb8ef12b4	-0.00011399892
68	0x3c218456	0.0098582115
69	0xbd23daf6	-0.04000374
70	0xbcc9d85c	-0.024639301
71	0xbd082746	-0.03324058
72	0x3c4410c5	0.011966889
73	0x3ba0416a	0.0048906105
74	0x397ce114	0.00024116441
75	0xbcd977e5	-0.026546428
76	0xbb94d5e5	-0.0045421
77	0xbca22666	-0.0197937
78	0x3cbe3aba	0.023221362
79	0x3b81e251	0.0039637466
80	0x3c194e49	0.009357044
81	0x3cca0ac1	0.024663331
82	0x3c3a1ae1	0.0113589475
83	0xbc93cdf1	-0.018042536
84	0x3cac9e2a	0.021071512
85	0xbc4df76a	-0.012571195
86	0xbce4f825	-0.027950356
87	0x3d0ce8cb	0.034401696
88	0xbcdc13f0	-0.026864976
89	0xbc87995e	-0.016552623
90	0xbbf62c7d	-0.0075126276
91	0x3d4adfdb	0.04952989
92	0xbca55177	-0.020180447
93	0x3b1e1458	0.0024121013
94	0xbd106248	-0.03524998
95	0x3c574cdf	0.013140886
96	0xbcc84925	-0.02444894
97	0xbcf4a04f	-0.029861597
98	0xbca2287f	-0.0197947
99	0xbd47ce79	-0.048780892
100	0xbc7e9816	-0.01553919
101	0xbd1e2681	-0.03861094
102	0xbd332840	-0.043739557
103	0xbd0eb25e	-0.034838073
104	0xbcbd07d0	-0.023075014
105	0xbc359ac3	-0.011084261
106	0x3d04dac1	0.032435182
107	0xbd2964c6	-0.04135587
108	0x3acc2661	0.0015575403
109	0x3d0ec079	0.034851525
110	0x3d420f8b	0.047378104
111	0xbd753e05	-0.0598736
112	0xbca13c4f	-0.019682078
113	0xbc449f72	-0.012000905
114	0xbc7ecd73	-0.015551913
115	0x3be65033	0.0070286035
116	0xbbd239f5	-0.0064156004
117	0xbc6d1efa	-0.014472717
118	0x3d0a2a9d	0.033732045
119	0xbc385ee1	-0.01125309
120	0xbd389ce2	-0.04507149
121	0x3cb688bc	0.022281997
122	0xbabda005	-0.0014467245
123	0x3d0e77ec	0.034782335
124	0xbc735224	-0.014851127
125	0x3ce47bff	0.027891157
126	0xb9452e3a	-0.00018804605
127	0x3b9a8ca0	0.004716471
128	0xbcabec93	-0.02098683
129	0x3c09f757	0.008420787
130	0x3c159527	0.009129799
131	0x3cbf2646	0.02333368
132	0x3ca6da2b	0.020367702
133	0xbbb72523	-0.005589144
134	0xbcafbe17	-0.021452947
135	0x3c38d74d	0.0112818
136	0xbd2f3fae	-0.04278534
137	0xbc6f5c29	-0.014609375
138	0xbd5440ad	-0.051819492
139	0xbd255106	-0.040360473
140	0xbc9e893f	-0.019352553
141	0xbd31f492	-0.04344613
142	0xbc79c391	-0.015244381
143	0x3c095af6	0.008383503
144	0xbd38c962	-0.04511393
145	0xbc9b4527	-0.018953873
146	0xbbbdc703	-0.0057915463
147	0xbd02e652	-0.03195793
148	0x3c228549	0.009919473
149	0xbd1726cf	-0.036902245
150	0x3c167d55	0.009185155
151	0xbce07088	-0.02739741
152	0x3d1a647c	0.037693486
153	0xbcbf47ca	-0.023349661
154	0x3c68f92b	0.0142195625
155	0x3c5bc450	0.013413504
156	0x3abeb72f	0.0014550443
157	0x3c5d4dcb	0.013507317
158	0xbcbdf3d9	-0.023187565
159	0xbc85f963	-0.016354268
160	0xbb167e41	-0.0022963437
161	0xbbbc4be8	-0.0057463534
162	0xbbbd48b0	-0.0057764873
163	0x3d4073ac	0.046985313
164	0x3bb05258	0.00538091
165	0xbd115786	-0.03548386
166	0xbc9bb64f	-0.01900783
167	0xbd0521e6	-0.03250303
168	0xbd17498c	-0.036935374
169	0x3d255ac0	0.04036975
170	0x3ccbe2e3	0.024888461
171	0x3c7033a1	0.014660747
172	0x3c0f71e4	0.008755181
173	0xbc84d940	-0.016216874
174	0xbd318906	-0.043343566
175	0xbb8e30d7	-0.0043393183
176	0x3cc3abb9	0.023885595
177	0xbd0ba9a0	-0.034097314
178	0xbd09e5a7	-0.03366628
179	0x3d21371c	0.039359197
180	0xbd28084a	-0.04102353
181	0xbd41ccd0	-0.047314465
182	0xbcce2776	-0.0251653
183	0x3afb6861	0.0019180888
184	0xbb73f603	-0.0037225492
185	0x3c0cc55f	0.008591979
186	0x3cffbc5c	0.031217746
187	0x3bc21aff	0.0059236283
188	0xbd001059	-0.03126559
189	0x3d18f003	0.037338268
190	0x3d180ec7	0.037123468
191	0xbbef7162	-0.0073072175
192	0x3cb45edf	0.022017894
193	0xbd6d4d42	-0.057935007
194	0x3b8561e4	0.0040705074
195	0x3c7734b9	0.015088254
196	0x3c619c18	0.013770126
197	0xbc1ab05f	-0.009441464
198	0xbcf6aeb7	-0.030112607
199	0x3c68469b	0.01417699
200	0x3d314a51	0.043283764
201	0xbbd39482	-0.0064569125
202	0xbcba8567	-0.02276869
203	0xbd2b71ef	-0.041856702
204	0xbca68560	-0.02032727
205	0x3cd16ad3	0.025563633
206	0xbc3a8dfd	-0.011386392
207	0xbd432148	-0.04763916
208	0xbd15a842	-0.036537416
209	0x3d330cda	0.043713428
210	0xbd63c5ef	-0.055608686
211	0xbcc697e0	-0.024242342
212	0xbce2e5ff	-0.027697561
213	0xbce5c6ca	-0.028048892
214	0x3a8f0a5f	0.0010913125
215	0x3cc08eb0	0.023505539
216	0x3cbd5be1	0.0231151
217	0x3cea550d	0.028605008
218	0x3c6ebc30	0.014571235
219	0xbd218279	-0.03943107
220	0x3b994ce6	0.0046783565
221	0x3c91c27b	0.01779293
222	0x3b8bf4f5	0.0042711445
223	0xbcdca155	-0.026932398
224	0xbd1932ca	-0.03740195
225	0x3a85649f	0.0010177082
226	0xbca41437	-0.02002917
227	0x3bc3ff19	0.0059813377
228	0xbd398adb	-0.04529844
229	0x3bed8b18	0.0072492473
230	0xbc4dd746	-0.012563532
231	0xbbf2a475	-0.0074048587
232	0xbc998e2c	-0.01874455
233	0xbcc310e5	-0.023811767
234	0x3ba46bcf	0.0050177346
235	0x3b63f331	0.0034782405
236	0x3c84d007	0.016212476
237	0xbd2b622d	-0.041841675
238	0xbd585cab	-0.05282275
239	0xbd388381	-0.045047287
240	0x3cbe9242	0.0232631
241	0xbc061373	-0.008183348
242	0x37928abe	1.7469163e-05
243	0xbcad7bfc	-0.021177284
244	0x3cdd1f41	0.026992442
245	0x3c8dfaf3	0.017331576
246	0xbd2bbeda	-0.041930057
247	0xbcd22823	-0.025653904
248	0xbb317e64	-0.0027083391
249	0xbb3fd329	-0.0029270148
250	0x3b7b0707	0.003830375
251	0x3cbf2899	0.023334788
252	0xbc8e08a8	-0.017338112
253	0x3bcd4f20	0.006265536
254	0xbc6f5140	-0.014606774
255	0xbcad884f	-0.021183161

conv4.0.bias f4 [128]
0	0xbcd006b0	-0.025393814
1	0xbc9928cc	-0.018696211
2	0xbd899b33	-0.06719055
3	0x3df4aecc	0.11947402
4	0x3deefad4	0.116689354
5	0xbdb46cad	-0.08809791
6	0xbc5f3a31	-0.013624714
7	0xbd7851cc	-0.060624883
8	0x3e1bc643	0.1521235
9	0x3d4a2cc0	0.049359083
10	0xbcf34927	-0.029697968
11	0xbda04457	-0.07825535
12	0xbbb1c707	-0.0054253372
13	0xbd7188d9	-0.0589684
14	0xbc88b48e	-0.016687658
15	0xbbf0753b	-0.0073381937
16	0x3ca6421d	0.020295197
17	0x3e0a45fa	0.13503256
18	0x3d033be2	0.03203953
19	0xbd26284b	-0.04056577
20	0xbda37240	-0.07980776
21	0x3dc208e1	0.0947435
22	0xbdaf17db	-0.08549472
23	0xbcecb696	-0.028895658
24	0xbce997a6	-0.028514694
25	0xb9d96986	-0.00041468086
26	0xbdabb0d2	-0.08383335
27	0xbda5bec5	-0.08093027
28	0xbc7dcdb7	-0.015490941
29	0x3c8d3004	0.01723481
30	0xbc501a4b	-0.012701581
31	0x3e1d5890	0.15365815
32	0xbcbf1e3b	-0.023329845
33	0xba95aef9	-0.0011419944
34	0x3dd79f5a	0.10528441
35	0x3c5c91ec	0.013462525
36	0xbd76b2d1	-0.060229126
37	0x3c81de42	0.015853051
38	0xbd8a8ec0	-0.06765509
39	0xbd85a169	-0.06524927
40	0xbbc1460d	-0.0058982433
41	0xbc52693c	-0.012842473
42	0x3ce6402b	0.02810677
43	0x3c25fb82	0.010130765
44	0xbd17561d	-0.03694736
45	0xbbcedefa	-0.006313202
46	0x3dbda38c	0.0925971
47	0xbcd30e9c	-0.025763802
48	0xbd0004f4	-0.031254724
49	0x3e1c91bd	0.1528997
50	0xbc81bb5d	-0.015836412
51	0x3d75ab2b	0.05997769
52	0x3c9d54cb	0.019205472
53	0xbb5617ae	-0.0032667923
54	0xbc20302d	-0.009777111
55	0xbd4f1776	-0.050559483
56	0x3c848642	0.0161773
57	0xbc02895d	-0.00796732
58	0xbd41d834	-0.047325328
59	0xbccf275b	-0.02528732
60	0xbd489db2	-0.048978515
61	0xbcd6714f	-0.026177077
62	0xbc960a12	-0.018315349
63	0xbba27cbe	-0.004958718
64	0x3dc0d0ad	0.09414802
65	0xbd2a4613	-0.041570734
66	0x3c413643	0.011792722
67	0xbcd44e17	-0.025916142
68	0x3da4ec52	0.08052887
69	0xbd4205cb	-0.047368806
70	0xbd9e557a	-0.07731147
71	0x3dcb3d76	0.09923832
72	0xbcab3f15	-0.020904103
73	0x3d983ed4	0.074338585
74	0x3cce0ed1	0.02515355
75	0xbc169b43	-0.009192291
76	0xbcd61711	-0.026134046
77	0xbd7854aa	-0.060627617
78	0xbd074c13	-0.033031534
79	0xbd0f73b6	-0.03502246
80	0x3dabfbe0	0.08397651
81	0x3b93ea9b	0.004514051
82	0x3e207c45	0.15672405
83	0xbc48dd31	-0.012259767
84	0xbb97faf3	-0.00463807
85	0xbd7d6238	-0.061861247
86	0x3d9bb04b	0.076019846
87	0xbceeddb4	-0.02915845
88	0xbd8d5264	-0.069004804
89	0xbc04d362	-0.008107038
90	0x3e2b3562	0.16719583
91	0x3c02ef76	0.007991662
92	0xbd2e5561	-0.042561892
93	0x3e214064	0.1574722
94	0xbc99b976	-0.018765192
95	0xbb334390	-0.0027353503
96	0xbc2924ea	-0.010323742
97	0xbcfebab5	-0.031094888
98	0xbd7445ce	-0.059636883
99	0x3e2d2b48	0.16911042
100	0xbdef51c7	-0.1168552
101	0xbd092394	-0.033481196
102	0xbc9d4be4	-0.019201227
103	0xbbd781df	-0.006576761
104	0x3cb57fad	0.022155607
105	0xbced7d50	-0.028990418
106	0x3e18c90d	0.14920445
107	0xbd2e0703	-0.042487156
108	0x3e29cc48	0.16581833
109	0x3de2fbff	0.11083221
110	0xbd4fd377	-0.050738778
111	0x3d10addb	0.03532205
112	0xbb250488	-0.0025179703
113	0x3b1863e1	0.0023252892
114	0xbc3fe6f2	-0.0117127765
115	0x3d5ea42e	0.054355793
116	0xbd3df0c3	-0.046372186
117	0x3d0f2ec8	0.034956723
118	0xbd570172	-0.052491613
119	0x3d57df8f	0.052703436
120	0xbc266190	-0.010155097
121	0xbd6a017e	-0.05713033
122	0xbcff0665	-0.031130979
123	0x3e0966e4	0.13418156
124	0xbd2c88a6	-0.042122506
125	0xbd45aab9	-0.048258517
126	0xbd373628	-0.04472938
127	0x3e20a0fb	0.15686409

linear.weight f4 [10, 2560]
0	0x3c1e04eb	0.009644727
1	0x3c8a3aad	0.016873682
2	0x3c3db9f4	0.011579979
3	0x3c105fba	0.0088118855
4	0xbc500860	-0.012697309
5	0xbc282e0f	-0.0102648875
6	0xbc0a7c4e	-0.008452488
7	0x3ab6c044	0.0013942798
8	0xbb9ffda4	-0.0048825312
9	0x3bdd832e	0.0067600226
10	0xbc068961	-0.008211465
11	0xbc9569fc	-0.018239014
12	0xb9ae75c6	-0.00033275614
13	0xbc1eb37f	-0.00968635
14	0x3c4b6ad6	0.012415608
15	0xb9e83f09	-0.00044297453
16	0x3ca6113f	0.020271895
17	0x3ba0bcc3	0.0049053147
18	0x3b34ef1a	0.0027608336
19	0x3ac7d96d	0.0015247293
20	0x3c1f3b90	0.009718791
21	0x3c678455	0.0141306715
22	0x3ca5283f	0.020160792
23	0xbc33ff45	-0.010986154
24	0x3c8e0e29	0.017340736
25	0x3c12871c	0.008943345
26	0x3c952a90	0.018208772
27	0x3ca466db	0.020068577
28	0x3be93126	0.0071164547
29	0xbb23a128	-0.0024967883
30	0xbc564ad1	-0.013079361
31	0x3c09ec19	0.0084181065
32	0x3cc7c131	0.024384113
33	0xbc005e25	-0.007834946
34	0xbb9e1c74	-0.004825169
35	0x3cc4803f	0.023986934
36	0x3c8f3d04	0.01748515
37	0x3bf18d0b	0.00737155
38	0x3c4b27dc	0.01239964
39	0x3c31e9b7	0.010858945
40	0x3cb4fc6a	0.022093017
41	0x3c9b4347	0.018952979
42	0xbc252b21	-0.0100810835
43	0xbc5f0303	-0.013611558
44	0x3cacc470	0.021089762
45	0x3c5758e8	0.0131437555
46	0xbb7011f0	-0.0036631785
47	0xbc64cdd9	-0.0139650935
48	0x3c86c98c	0.016453527
49	0xbc9bd871	-0.019024106
50	0x3be257ea	0.006907453
51	0xbbd6304c	-0.006536519
52	0xbc00c321	-0.007859022
53	0x3cb78c9c	0.022405915
54	0x3c1a3ccf	0.009413912
55	0x3bf8c2f3	0.007591599
56	0xbc584b22	-0.013201507
57	0x3ca95c1c	0.020673804
58	0x3ca42ec6	0.020041835
59	0xbacf72bb	-0.0015827039
60	0xbbc84067	-0.006111193
61	0x3c27ec4a	0.010249207
62	0x3ac65605	0.0015131837
63	0xbc09b2d9	-0.008404457
64	0xbc65ef53	-0.01403411
65	0xbc5bd2f3	-0.013416993
66	0xbc1bf805	-0.009519582
67	0x3ad0b343	0.0015922565
68	0x3c99fd49	0.018797534
69	0x3c7da671	0.015481577
70	0xbc2a0f94	-0.010379691
71	0x39ddc3aa	0.00042298186
72	0x3c8ad8a4	0.016949005
73	0x3c95e023	0.018295353
74	0x3c31e662	0.01085815
75	0x3c2bc933	0.010484981
76	0x3c00b117	0.0078547215
77	0x3b18f470	0.0023339055
78	0xbc49ecd5	-0.012324532
79	0xbc64be7a	-0.013961429
80	0xbc724cce	-0.0147888195
81	0xbb038017	-0.0020065361
82	0xbb1b9038	-0.0023737084
83	0xbc4b3284	-0.012402181
84	0x3a289e70	0.00064323004
85	0x3c2324a2	0.009957464
86	0x3c7fd285	0.015614157
87	0x3bf5a39a	0.0074963095
88	0xbc35708e	-0.011074198
89	0xbbf168b2	-0.007367217
90	0xbc6f924c	-0.014622282
91	0x3c295db0	0.010337278
92	0x3b4e5f26	0.0031489818
93	0x3b88027b	0.0041506863
94	0x3c1676c7	0.009183592
95	0xbbbe78ea	-0.005812754
96	0x3b0466cd	0.0020202876
97	0xbc559721	-0.01303652
98	0x3cbb7b45	0.022885928
99	0xbbe7ffda	-0.0070800604
100	0x39934113	0.0002808651
101	0x3caddb9b	0.02122288
102	0x3bd665f3	0.006542915
103	0xbbe2ebc3	-0.0069250776
104	0xbc6b9833	-0.014379549
105	0x3c98c67b	0.01864933
106	0xbc819b44	-0.015821107
107	0x3c446af5	0.011988391
108	0x3bee872e	0.0072792983
109	0x3c31b27f	0.010845779
110	0x3c83b9df	0.016079841
111	0xbc166ddf	-0.009181469
112	0x3c63de0f	0.013907923
113	0xbb9b3339	-0.004736331
114	0x3c15f673	0.009152996
115	0x3abb1266	0.0014272451
116	0x3c6ad32e	0.014332576
117	0x3c60e98e	0.013727559
118	0x3a915393	0.0011087529
119	0xbb4a008b	-0.0030823078
120	0xba10126b	-0.00054959086
121	0x3cb88bfa	0.022527684
122	0xbac91ffc	-0.0015344615
123	0x3c186cac	0.009303253
124	0xbbf9d259	-0.0076239523
125	0x3a24d798	0.00062882295
126	0x3bff9049	0.0077991826
127	0xbc73c92e	-0.014879508
128	0xbc86463f	-0.016390918
129	0xbc708c66	-0.014681911
130	0xbb86b970	-0.0041114613
131	0x3b3a93c6	0.0028469427
132	0x3bd5c62b	0.0065238676
133	0xbc6c81dd	-0.014435259
134	0xbc436a5f	-0.011927216
135	0x3c9ae46f	0.018907754
136	0x3ccb810d	0.02484181
137	0x3c0b039f	0.00848475
138	0x3b957415	0.004560957
139	0xbc6199f6	-0.013769617
140	0xbc18cccd	-0.009326172
141	0x3c34867d	0.011018393
142	0xbc581468	-0.013188459
143	0xbbd750d0	-0.006570913
144	0xba0539be	-0.00050821516
145	0xbc3fafe7	-0.011699653
146	0x3c8c1de5	0.017104099
147	0xbb011d99	-0.001970148
148	0xbb06c057	-0.002056142
149	0xbc94f036	-0.018180948
150	0xba8c0f49	-0.0010685708
151	0xbc244920	-0.0100272
152	0x3c2c2385	0.010506515
153	0xbbca4bef	-0.006173603
154	0x3c49e01a	0.012321496
155	0x3c7b0f33	0.015323448
156	0xbc83f29d	-0.016106898
157	0xbba386f5	-0.0049904534
158	0x3c8f4a3c	0.017491452
159	0xbc3f7ddf	-0.011687725
160	0xbbe42c68	-0.0069633015
161	0xbd37fe73	-0.044920396
162	0xbde1ebe8	-0.11031324
163	0xbd72f560	-0.05931604
164	0xbb55d37d	-0.0032627278
165	0xbc0cd0af	-0.008594676
166	0xbc29089b	-0.010316993
167	0x3c8f0cd1	0.017462166
168	0xbc8f8ce0	-0.01752323
169	0x3a02f9e4	0.0004996343
170	0x3c65e874	0.014032472
171	0x3c557d0e	0.013030304
172	0xbc865e8a	-0.016402502
173	0x3c17f816	0.009275457
174	0x3bd0327f	0.006353676
175	0xbca75908	-0.020428196
176	0xbc64e144	-0.013969723
177	0x3c7abc72	0.015303718
178	0x3b853f05	0.0040663504
179	0xbb3ffa13	-0.0029293343
180	0xbdbca6e4	-0.09211519
181	0xbbcd36eb	-0.0062626502
182	0x3b06307f	0.0020475683
183	0xbc04d1ee	-0.008106692
184	0xbcf1ad4c	-0.02950158
185	0xbab28de7	-0.0013622612
186	0x3979780e	0.00023791214
187	0xbc49883e	-0.012300549
188	0xbc50173f	-0.012700855
189	0x3c215222	0.009846242
190	0x3c4dfbf4	0.012572277
191	0xbc8ff293	-0.017571723
192	0xbd478ddc	-0.048719272
193	0x39c61d59	0.0003778737
194	0x3bc5ceea	0.006036629
195	0x3bd07221	0.0063612615
196	0xbc74d597	-0.014943502
197	0xbc6be6bb	-0.014398272
198	0x3c94ec73	0.018179154
199	0xbaa2f6e7	-0.0012433202
200	0x3cbb526d	0.022866452
201	0x3bebdfd5	0.0071983137
202	0xbc124316	-0.008927127
203	0x3ba5ab37	0.005055811
204	0xbba88a4e	-0.0051434403
205	0x3c24b495	0.01005282
206	0x3c582eca	0.013194749
207	0xbbedf198	-0.0072614662
208	0x3b7a1c8f	0.0038163995
209	0x3c853fd3	0.016265785
210	0xbc254872	-0.010088073
211	0xbb91b492	-0.0044465745
212	0x3cb846e2	0.022494737
213	0xbc093208	-0.008373745
214	0x3c2dcb5e	0.010607569
215	0x3bf94360	0.0076069087
216	0xbbabbeb4	-0.0052412394
217	0x3bb61d98	0.005557727
218	0x3cb7bee1	0.022429885
219	0xbc2f005a	-0.010681236
220	0x3b87b42c	0.004141351
221	0x3ca6c3df	0.02035707
222	0x3c5d7b2f	0.013518139
223	0x3c3e0edd	0.011600223
224	0x3c7f8b6d	0.015597207
225	0x3ca90b3a	0.020635236
226	0x3b9ad0c1	0.0047245924
227	0x3c73f117	0.014889023
228	0xbc34ee7c	-0.011043187
229	0xbc9b4fff	-0.018959044
230	0xbc82463a	-0.015902627
231	0xbb96f0c7	-0.0046063396
232	0x3bee8e47	0.0072801444
233	0x3bc6a9e2	0.006062732
234	0x3c9663d3	0.018358147
235	0x3c38a740	0.011270344
236	0x3c8077ab	0.015682062
237	0xbc7e099d	-0.015505222
238	0x3c9a1d4f	0.018812804
239	0x3ca5e1ac	0.02024921
240	0xbbd7c763	-0.006585048
241	0xbc26c23f	-0.010178148
242	0xbb89878c	-0.0041970666
243	0xbb949a57	-0.0045350003
244	0x3c50247d	0.012704012
245	0xbab8bf5b	-0.0014095114
246	0x3cbec608	0.023287788
247	0xbc44b0c9	-0.0120050395
248	0x39bb1454	0.00035682565
249	0xbc62c98a	-0.013841996
250	0x3c9661b1	0.01835713
251	0x3a9dd92b	0.001204287
252	0x3cb722c7	0.02235545
253	0xbc245c6e	-0.010031803
254	0xbb9591ce	-0.0045645004
255	0x3b8fcea8	0.004388649

linear.bias f4 [10]
0	0x3ba3ab5f	0.0049947943
1	0xbd346381	-0.044040207
2	0x3d8a1684	0.06742576
3	0xbd0222ea	-0.031771578
4	0xbb933158	-0.004491966
5	0xbbcbbcb5	-0.006217564
6	0xbd39470d	-0.045233775
7	0xbd6bf9f0	-0.057611406
8	0x3d4af525	0.049550194
9	0xbc78d9d5	-0.015188654
